models/model.pt (torch, 5631 bytes, 8 tensors)

convs.0.weight f4 [4, 16]
-0.17640983 -0.0004811121 0.018514503 -0.21905167 0.14210519 -0.040251594 0.15717873 -0.21675569
-0.080016345 0.0340699 0.023595978 -0.0855714 -0.02311739 0.7473194 -0.32709554 0.16471112
0.5111809 -0.26405597 0.2659403 -0.366845 0.40403304 -0.092721954 0.32523388 -0.08698257
-0.50162816 -0.13525878 0.14426151 0.123575345 0.19183162 0.014563395 0.27537987 -0.37098494
0.34991983 -0.06787506 -0.5034898 0.2788826 -0.17074835 0.5028297 -0.23175983 -0.23626131
0.23167159 -0.14306271 -0.23559074 0.51877505 0.012545507 0.13672613 -0.45957583 -0.13794202
-0.29869032 0.14076813 -0.6723294 -0.01614533 -0.029032536 0.031331375 0.17777836 0.23970845
-0.053343117 0.016062364 0.026928555 0.42830595 -0.68338716 -0.04600948 -0.49625775 0.16816095
00000000: c7a4 34be c63d fcb9 baab 973c 154f 60be
00000010: 0684 113e dbde 24bd 76f3 203e 34f5 5dbe
00000020: 9cdf a3bd e18c 0b3d 5a4c c13c 0f40 afbd
00000030: ae60 bdbc 5350 3f3f 1179 a7be 08aa 283e
00000040: c0dc 023f 5832 87be 5429 883e 1cd3 bbbe
00000050: 6bdd ce3e 02e5 bdbd 0e85 a63e eb23 b2bd
00000060: b46a 00bf 4781 0abe 4ab9 133e 1215 fd3d
00000070: 826f 443e 4e9b 6e3c 97fe 8c3e bdf1 bdbe
00000080: b128 b33e 1402 8bbd b5e4 00bf b3c9 8e3e
00000090: a8d8 2ebe 72b9 003f 7352 6dbe 7cee 71be
000000a0: 513b 6d3e 087f 12be b33e 71be 71ce 043f
000000b0: ac8b 4d3c ef01 0c3e 864d ebbe ac40 0dbe
000000c0: f0ed 98be 8525 103e c81d 2cbf 3643 84bc
000000d0: a4d5 edbc 5455 003d 880b 363e 2276 753e
000000e0: 507e 5abd 3895 833c 4699 dc3c eb4a db3e
000000f0: 76f2 2ebf 7074 3cbd 7f15 febe 6232 2c3e

convs.0.bias f4 [16]
-0.0007374225 0.0006003508 0.0010935725 0.0009154435 -0.028048664 -0.003607809 -0.008061584 -0.0020447113
-0.00027292664 -3.156854e-05 -0.0153932 5.9464044e-05 -0.015282226 -0.019225018 -0.00973217 -0.00026933284
00000000: 964f 41ba dc60 1d3a 3456 8f3a 60fa 6f3a
00000010: 50c6 e5bc fe70 6cbb bc14 04bc 9000 06bb
00000020: 9817 8fb9 7668 04b8 c333 7cbc 0869 7938
00000030: 4d62 7abc c97d 9dbc ae73 1fbc 3e35 8db9

convs.1.weight f4 [16, 16]
0.0431712 0.0062366067 0.006927106 -0.36258096 -0.5065404 -0.19184287 0.15914832 -0.25191113
-0.27349252 0.079643264 -0.21012513 -0.12111698 0.12095993 -0.3204435 -0.47301716 -0.05714908
-0.14243416 0.044626966 0.10974801 -0.107517034 -0.17944272 0.006704001 0.0015094293 -0.00046738735
0.027015362 -8.7440435e-07 -6.626495e-06 6.4408828e-06 0.003963955 0.14939283 0.1494363 0.31856978
-0.4245568 0.68085265 0.10530979 0.099010415 0.13586044 0.17094553 -0.2451914 -0.1355771
-0.049210466 -0.30852848 2.2162098e-05 -0.09669581 -0.016821992 0.3336709 -0.005606519 0.017748466
0.029595926 0.24331096 -0.02643632 0.002800109 0.11414818 0.0014513691 -0.008455566 0.004832566
-0.001118728 0.030913193 0.0996906 0.0012730518 0.13416566 0.17222324 0.10020167 -0.32718244
0.026672505 -0.062104933 -0.39134616 0.233221 0.29316464 0.0025360186 -0.2996787 0.16906646
-0.48395774 -0.0025887862 -0.07363817 -0.028009517 -0.43689764 -0.3340176 0.13367838 -0.3001317
-0.5517492 0.08598685 -0.33849365 -0.42697015 0.09159565 0.061844602 -0.16499451 -0.009800746
-0.18442279 0.21801601 -0.07410929 0.022218917 -0.12222263 0.2343884 -0.16919523 -0.11414807
0.071977325 -0.13754168 0.20692132 -0.21910007 -0.19362631 -0.041550446 -0.21563752 -0.31510457
-0.12082136 -0.44320413 -0.026820295 -0.099008635 -0.36701405 0.33114284 0.07774244 -0.2949164
0.014360869 0.21044983 -0.10308825 0.2742524 0.17827667 -0.2794936 0.19210266 0.1187012
0.25038025 -0.14567924 0.0027614934 -0.34119332 0.14561026 -0.035577476 -0.23999551 0.27109906
-0.0146723725 -0.022271391 -0.009958875 -6.0715658e-05 0.03127394 -0.0011679409 0.00031943404 1.724609e-05
0.000898359 -0.177937 0.11537658 0.00065409375 0.11351574 0.4077825 0.049543206 0.19745034
-6.724124e-06 0.00033859644 0.009437754 0.014342253 -0.08125679 -8.08922e-06 1.4112574e-05 3.1659347e-06
0.0010880835 -5.5341025e-06 -1.6044853e-05 -5.7297893e-06 2.8105824e-05 0.06060452 0.1167318 -0.1943388
-0.16001058 -0.19063278 -0.08352567 0.009613655 0.054552283 0.17221126 0.00085451914 -0.058302112
0.22542754 -0.28019285 0.0004469948 0.099931575 -0.08221168 -0.033874854 0.043368313 0.22632402
-0.0047780136 -0.040682998 0.100452594 -0.1490868 -0.2457088 -0.09194444 -0.2539303 -0.2147256
-0.11646486 -0.40220252 -0.0015407375 -0.2318463 -0.20093028 -0.10587218 -0.19372301 0.031145785
-0.13785006 0.45314634 -0.2685653 0.18318406 -0.18369517 -0.18363081 0.17257431 -0.1750785
0.11418844 0.08663257 0.061531205 -0.0746467 0.13724147 0.16061428 -0.1565364 0.114394516
-0.26940852 0.45576605 -0.21937314 -0.009380939 -0.09823612 -0.00018304992 -0.0006446775 0.006825004
-0.00015807492 -0.083630756 -0.000132919 0.001148229 -0.0064524277 -0.037570205 -0.08385948 -0.024270298
-0.075036876 0.44571805 -0.007737883 -0.22437154 0.22451013 -0.37732273 -0.22130318 0.31306392
0.15980655 0.3401195 0.00025409096 0.0524166 -0.24167942 0.3275138 0.07273813 -0.3211772
0.057340767 -0.0635239 -0.07025789 0.16044173 0.034520496 -9.081429e-06 0.0006457077 -0.0017442201
-0.12107032 -7.724662e-06 7.451956e-07 0.0026607243 0.0006875279 0.2648379 0.020155277 0.019160142
00000000: 49d4 303d 735c cc3b c7fc e23b 36a4 b9be
00000010: a2ac 01bf 7572 44be c7f7 223e 7ffa 80be
00000020: 3607 8cbe 021c a33d 0b2b 57be 2e0c f8bd
00000030: d7b9 f73d 2c11 a4be 4e2f f2be 2715 6abd
00000040: 43da 11be c4ca 363d 91c3 e03d e431 dcbd
00000050: d5bf 37be 3dad db3b 0bd8 c53a ab0b f5b9
00000060: 524f dd3c 9cb8 6ab5 2959 deb6 c31e d836
00000070: 11e4 813b 6ffa 183e d405 193e 941b a33e
00000080: 825f d9be 5c4c 2e3f a9ac d73d f9c5 ca3d
00000090: 001f 0b3e 580c 2f3e 7413 7bbe b9d4 0abe
000000a0: ea90 49bd 72f7 9dbe bee8 b937 7408 c6bd
000000b0: 46ce 89bc ead6 aa3e e4b6 b7bb 3b65 913c
000000c0: 2873 f23c 8226 793e fb90 d8bc 0982 373b
000000d0: 85c6 e93d de3b be3a 3789 0abc 805a 9e3b
000000e0: 48a2 92ba aa3d fd3c 962a cc3d 88dc a63a
000000f0: b962 093e 4a5b 303e 8836 cd3d 7584 a7be
00000100: 4c80 da3c be61 7ebd 865e c8be 7cd1 6e3e
00000110: ad19 963e 5533 263b 7d6f 99be c21f 2d3e
00000120: 4fc9 f7be a0a8 29bb 9ccf 96bd 3774 e5bc
00000130: 0cb1 dfbe 5b04 abbe fce2 083e ddaa 99be
00000140: 703f 0dbf e019 b03d 0a4f adbe d59b dabe
00000150: 8096 bb3d c450 7d3d 52f4 28be 4f93 20bc
00000160: 54d9 3cbe 973f 5f3e 9dc6 97bd 7204 b63c
00000170: dc4f fabd 8303 703e 8441 2dbe 77c6 e9bd
00000180: d968 933d bad7 0cbe 2fe3 533e c55b 60be
00000190: fa45 46be cd30 2abd 15d0 5cbe 6355 a1be
000001a0: 3071 f7bd a7eb e2be 3cb6 dbbc 0ac5 cabd
000001b0: 44e9 bbbe 8e8b a93e 6e37 9f3d 48ff 96be
000001c0: da49 6b3c 2980 573e ef1f d3bd d06a 8c3e
000001d0: 298e 363e c919 8fbe 8fb6 443e 9d19 f33d
000001e0: d731 803e f02c 15be 2cfa 343b e4b0 aebe
000001f0: db1a 153e b0b9 11bd 62c1 75be 7fcd 8a3e
00000200: 6464 70bc 7e72 b6bc 8d2a 23bc f1a8 7eb8
00000210: 1a19 003d 9815 99ba b679 a739 b2ab 9037
00000220: da7f 6b3a 1e35 36be 8e4a ec3d 7d77 2b3a
00000230: f17a e83d dec8 d03e d1ed 4a3d 6c30 4a3e
00000240: c99f e1b6 a585 b139 cfa0 1a3c c5fb 6a3c
00000250: f669 a6bd efb6 07b7 0bc5 6c37 5876 5436
00000260: 069e 8e3a 94b1 b9b6 0f98 86b7 8442 c0b6
00000270: ccc4 eb37 723c 783d 1511 ef3d c000 47be
00000280: d0d9 23be 3d35 43be 820f abbd 9782 1d3c
00000290: 3772 5f3d 2658 303e cf01 603a 32ce 6ebd
000002a0: 7ad6 663e 7075 8fbe a05a ea39 eda8 cc3d
000002b0: 995e a8bd 5cc0 0abd f9a2 313d 7cc1 673e
000002c0: e290 9cbb 37a3 26bd 17ba cd3d 36aa 18be
000002d0: 169b 7bbe 5e4d bcbd 2703 82be 07e1 5bbe
000002e0: 2185 eebd 7ded cdbe 92f2 c9ba 1e69 6dbe
000002f0: abc0 4dbe 83d3 d8bd 535f 46be 7225 ff3c
00000300: 9128 0dbe cc02 e83e 6481 89be 9a94 3b3e
00000310: 961a 3cbe b709 3cbe 52b7 303e c747 33be
00000320: a1db e93d 6b6c b13d 2508 7c3d 5ee0 98bd
00000330: 0789 0c3e 1278 243e 144b 20be ac47 ea3d
00000340: eaef 89be 2b5a e93e 5aa3 60be 83b2 19bc
00000350: 0530 c9bd 17f1 3fb9 93ff 28ba 48a4 df3b
00000360: eac0 25b9 9a46 abbd 2c60 0bb9 2c80 963a
00000370: e36e d3bb 37e3 19bd 85be abbd 81d2 c6bc
00000380: efac 99bd 2835 e43e 118e fdbb a7c1 65be
00000390: fce5 653e 7230 c1be 4d9d 62be ea49 a03e
000003a0: 54a4 233e 2524 ae3e 8337 8539 cab2 563d
000003b0: cf7a 77be e4af a73e bbf7 943d 5771 a4be
000003c0: 27de 6a3d d218 82bd 5ee3 8fbd d64a 243e
000003d0: 5d65 0d3d 715c 18b7 b644 293a 519e e4ba
000003e0: b7f3 f7bd 2c99 01b7 7409 4835 8c5f 2e3b
000003f0: 373b 343a d598 873e ae1c a53c bbf5 9c3c

convs.1.bias f4 [16]
0.016640691 -0.0002627601 0.0028286816 0.00018615574 -0.03337138 -0.00034295736 -0.00075309735 -0.0011109392
-0.0002954965 -0.0024403182 -0.00017878368 1.3034224e-05 -3.0127063e-05 -0.0018203297 -0.022274895 -0.0016951715
00000000: 0f52 883c 10c3 89b9 6761 393b cd32 4339
00000010: 6eb0 08bd f5ce b3b9 826b 45ba ef9c 91ba
00000020: deec 9ab9 bfed 1fbb e177 3bb9 91ad 5a37
00000030: 60b9 fcb7 2198 eeba d779 b6bc 8430 deba

convs.2.weight f4 [16, 16]
-0.06937684 0.06661074 -0.35514924 0.11892448 -0.3006255 0.17176013 -0.16049378 0.17744607
-0.25672978 0.24362361 0.16383852 -0.29321805 0.14799304 0.13103014 0.18271527 -0.29163286
-0.021691611 -0.030787185 0.22791094 -0.10170604 0.25734824 -0.12616044 -0.10029932 -0.07409191
-0.11929033 -0.11331916 -0.10002295 -0.17099239 -0.14317839 -0.21855226 -0.088945895 -0.07226055
-0.06443362 0.036797695 0.027374858 0.18630482 -0.19008024 0.016445195 0.10219781 -0.10104922
0.0826592 -0.23792022 -0.16776071 0.122702874 -0.121291 -0.15242916 -0.11780387 -0.076971255
-0.06889251 0.13141069 0.06311497 -0.28540957 0.025967026 -0.28640562 0.016937442 -0.15973201
-0.25740087 -0.14122203 -0.24524832 -0.011157362 0.15836172 0.07985074 -0.09065023 -0.3257877
-0.011274114 0.13220039 0.2682052 -0.3187503 -0.24532844 0.081480674 -0.3200552 -0.31220698
0.07317371 -0.14921005 -0.23293176 -0.24983367 -0.25912392 0.30298468 0.28128475 0.19245861
-7.13353e-05 0.007054262 0.007133921 -0.20355277 -0.06907344 0.26969573 -0.0042877058 0.007768674
0.1398002 0.00078780344 0.00067961175 -0.16983454 0.006911379 -0.24443108 -0.12617777 0.24991892
0.002078163 0.009220355 0.007329341 0.03204819 0.009061083 -0.028164182 0.06540809 -0.03387082
0.0033822234 -0.0904716 -0.016220631 0.040108122 -0.07057068 -0.1184287 0.13265543 0.0013516104
-0.0050172857 0.047216494 0.103998244 -0.074218616 0.1297266 0.0069346456 -0.050656263 -0.051709253
-0.23913778 0.15258335 0.0017289701 -0.0014935579 -0.10810662 0.0679018 -0.13039935 -0.31740654
0.08337684 -0.25549376 -0.26923394 0.33132485 0.28012615 -0.18921629 -0.009302349 0.17855407
-0.10516706 0.07388715 0.25346085 0.12177345 0.11380815 0.027480155 0.16485201 -0.15478638
0.0831389 0.10942253 0.073965535 0.08045318 0.15959093 -0.022856118 0.05086878 0.2462051
-0.3252247 0.03896303 0.16610476 0.17796452 -0.13672926 -0.2542129 -0.21571809 -0.3489879
0.0004697755 0.00012922903 0.0002473108 -0.003689756 0.000383983 0.0001222014 0.00843929 -0.057586428
2.5453693e-07 0.24480103 -0.0012768655 0.10619644 0.22159082 -4.478685e-05 -0.00019092699 -0.0006495877
0.000514401 0.23302522 0.15667997 0.22898427 0.35019743 0.23428234 -0.044855975 -0.09390406
0.083878726 0.025619155 0.0020484135 -0.17490155 -0.08800967 -0.22129972 -0.3359115 -0.025471559
0.0048481417 0.02861887 0.007561319 -0.18914527 -0.040465735 0.11999217 -0.04615101 0.086299166
-0.0021765458 0.16466127 -0.0067167324 0.14003932 -0.1551085 -0.032307 0.035685085 0.00032492285
0.11570975 -0.1375375 0.27607414 -0.03931269 0.04116152 -0.45684505 -0.3287054 0.23374884
-0.45136473 0.022789232 0.20506036 0.046970367 0.016959425 -0.28490654 -0.1485618 -0.38991365
-0.06453329 0.18140037 0.21255738 0.24710763 0.2902661 0.286847 0.16137677 0.37963796
0.016384954 -0.36016136 -0.08961196 0.2660739 0.032268293 -0.2746692 0.1398296 -0.13219193
0.0034293067 -0.060600676 -0.04392751 0.07038501 -0.17098883 0.07202594 -0.10683965 0.09643008
-0.039108712 -0.3164952 -0.016816005 0.010043829 -0.14124657 0.20539524 -0.08554439 0.07392337
00000000: 7215 8ebd 366b 883d 1fd6 b5be ae8e f33d
00000010: 96eb 99be e3e1 2f3e 7b58 24be 6cb4 353e
00000020: 1672 83be 7878 793e 49c5 273e ad20 96be
00000030: 7d8b 173e c42c 063e b619 3b3e e750 95be
00000040: 9bb2 b1bc 6835 fcbc 7c61 693e 424b d0bd
00000050: 26c3 833e 3430 01be bb69 cdbd 80bd 97bd
00000060: 7d4e f4bd e013 e8bd d5d8 ccbd a118 2fbe
00000070: 5b9d 12be 2acc 5fbe 4429 b6bd 57fd 93bd
00000080: c6f5 83bd 2eb9 163d 3d41 e03c b1c6 3e3e
00000090: 65a4 42be 13b8 863c 164d d13d e5f2 cebd
000000a0: 3a49 a93d 5ca1 73be 77c9 2bbe a54b fb3d
000000b0: 6a67 f8bd 6416 1cbe 2843 f1bd 1ba3 9dbd
000000c0: 8417 8dbd 8690 063e 6c42 813d 3421 92be
000000d0: cdb8 d43c c2a3 92be 64c0 8a3c ca90 23be
000000e0: 0cca 83be 829c 10be 6022 7bbe 5ecd 36bc
000000f0: 9329 223e c988 a33d d4a6 b9bd a5cd a6be
00000100: 10b7 38bc 8a5f 073e 3152 893e 3d33 a3be
00000110: 6137 7bbe 57df a63d 46de a3be 98d9 9fbe
00000120: 19dc 953d 85ca 18be aa85 6ebe 66d4 7fbe
00000130: e4ab 84be cf20 9b3e 8e04 903e df13 453e
00000140: d999 95b8 7027 e73b abc3 e93b 2370 50be
00000150: 6076 8dbd 8f15 8a3e e27f 8cbb 5c90 fe3b
00000160: c927 0f3e 9884 4e3a f927 323a 1be9 2dbe
00000170: d978 e23b 244c 7abe bf34 01be bfea 7f3e
00000180: ca31 083b f910 173c f82a f03b f644 033d
00000190: f074 143c 92b8 e6bc adf4 853d 21bc 0abd
000001a0: 4ba8 5d3b 2d49 b9bd 21e1 84bc 6a48 243d
000001b0: 5c87 90bd bf8a f2bd d3d6 073e 8528 b13a
000001c0: 0b68 a4bb 1566 413d 08fd d43d eeff 97bd
000001d0: 0dd7 043e 063c e33b f17c 4fbd 15cd 53bd
000001e0: 89e0 74be cf3e 1c3e 9c9e e23a 7dc3 c3ba
000001f0: 0167 ddbd 1910 8b3d 6887 05be 1c83 a2be
00000200: 7ac1 aa3d 14d0 82be 08d9 89be 69a3 a93e
00000210: b26c 8f3e eac1 41be e168 18bc e1d6 363e
00000220: d461 d7bd 2552 973d 9fc5 813e 5c64 f93d
00000230: 3f14 e93d 101e e13c f7ce 283e 5280 1ebe
00000240: ba44 aa3d eb18 e03d 3e7b 973d a3c4 a43d
00000250: ce6b 233e c13c bbbc c85b 503d 311d 7c3e
00000260: da83 a6be b397 1f3d 5e17 2a3e 553c 363e
00000270: c102 0cbe 3128 82be 34e5 5cbe 8bae b2be
00000280: 334c f639 a781 0739 7ea9 8139 d5cf 71bb
00000290: 5351 c939 3023 0039 f344 0a3c bfdf 6bbd
000002a0: 4aa7 8834 1fad 7a3e 7f5c a7ba 857d d93d
000002b0: b4e8 623e 84d9 3bb8 9333 48b9 1849 2aba
000002c0: ded8 063a 2a9e 6e3e b770 203e da7a 6a3e
000002d0: 144d b33e b6e7 6f3e e6ba 37bd c650 c0bd
000002e0: 9cc8 ab3d 43df d13c ad3e 063b 6419 33be
000002f0: 6a3e b4bd 659c 62be 98fc abbe bba9 d0bc
00000300: 29dd 9e3b 1f72 ea3c f1c4 f73b 4caf 41be
00000310: 66bf 25bd 74be f53d d708 3dbd 9ebd b03d
00000320: 61a4 0ebb f79c 283e 0918 dcbb 7866 0f3e
00000330: c3d4 1ebe 5854 04bd 862a 123d 685a aa39
00000340: 3cf9 ec3d a1d6 0cbe 9759 8d3e 5806 21bd
00000350: fb98 283d 98e7 e9be 134c a8be db5b 6f3e
00000360: 4719 e7be 7cb0 ba3c 58fb 513e 0064 403d
00000370: 7eee 8a3c 45df 91be 9620 18be c3a2 c7be
00000380: 082a 84bd 05c1 393e a4a8 593e c809 7d3e
00000390: c29d 943e 9cdd 923e f43f 253e e85f c23e
000003a0: bd39 863c 1267 b8be 7a86 b7bd d73a 883e
000003b0: c22b 043d 71a1 8cbe 7e2f 0f3e 525d 07be
000003c0: 38be 603b 6a38 78bd 55ed 33bd 0426 903d
000003d0: b217 2fbe 5682 933d bfce dabd 227d c53d
000003e0: 7530 20bd a90b a2be b8c1 89bc df8e 243c
000003f0: f1a2 10be 2153 523e e631 afbd 2365 973d

convs.2.bias f4 [16]
-0.0021893224 -0.13182312 0.0045358716 0.31803843 -0.0022154818 0.3455968 -0.096633635 0.01933434
0.409497 -0.3278703 0.11544611 0.22289178 0.4911738 0.2655242 0.20608337 -0.024566075
00000000: bc7a 0fbb a4fc 06be a6a1 943b efd5 a23e
00000010: 9e31 11bb 10f2 b03e dbe7 c5bd 0d63 9e3c
00000020: 97a9 d13e 9ede a7be 036f ec3d be3d 643e
00000030: 227b fb3e caf2 873e 8507 533e cb3e c9bc

convs.3.weight f4 [16, 2]
-0.53909826 -0.50944203 0.25649607 0.38508096 0.4646054 0.5018629 0.40038997 0.19686484
-0.17611209 -0.10654365 0.4372337 -0.028178686 -0.08218484 0.057622485 0.31679234 0.30120903
0.37854198 0.030755684 -0.16711488 0.30696774 -0.044013575 -0.106334545 0.40418705 0.2677526
0.3719321 -0.46281442 0.42161602 -0.005835329 -0.03267257 -0.21168384 0.16181028 -0.18464544
00000000: 5802 0abf cb6a 02bf 7453 833e 5529 c53e
00000010: c2e0 ed3e 167a 003f eaff cc3e f096 493e
00000020: ba56 34be 8f33 dabd 18dd df3e fdd6 e6bc
00000030: 8750 a8bd 8e05 6c3d 9b32 a23e 1238 9a3e
00000040: 41d0 c13e 58f3 fb3c 2a20 2bbe e02a 9d3e
00000050: 9447 34bd edc5 d9bd 9bf1 ce3e de16 893e
00000060: e26d be3e 03f6 ecbe 0ede d73e 4a36 bfbb
00000070: acd3 05bd a6c3 58be 98b1 253e b213 3dbe

convs.3.bias f4 [2]
0.49278265 -0.49278262
00000000: 024e fc3e 014e fcbe
