models/model.pt (torch, 21991 bytes, 12 tensors)

convs.0.weight f4 [4, 32]
00000000: e6f0 8e3d 153c 893e 3510 982a 6be0 7c3c
00000010: fe66 df3b e629 a3be d0b2 c5bb a0a8 513d
00000020: 3375 613d 157c a322 adbf 1e3e b995 8a35
00000030: 8d35 29bd e690 cb3d 277d 8b3d 1d04 8d3d
00000040: f0d2 b43b 60c7 2aaa 661d c23d 9692 8eba
00000050: e2fd 8a3e 5eb8 aa3d fcc6 313e cce3 c4a6
00000060: b384 98bc c513 99b4 bad1 f231 9741 773e
00000070: 255e e033 6d6b bebe 095b 823c 24b3 b63d
00000080: e433 a9bd 162f 043e 3523 a1b9 a5bc a03c
00000090: ae5a 88bb a750 df3d 0902 023e f7f9 813e
000000a0: d88c fa3d ff9e e3b8 5bc4 7dbd bb2a 5ab7
000000b0: 0d99 133d d107 e53d 76a3 f93c 61b7 9f3c
000000c0: 736a 283d a73e d4b8 c08e c9bd fea8 ac3d
000000d0: 11fe b73c f05a bd3d 55be bf3c 7f9b 8ea8
000000e0: 4081 5fbd 8418 bdb2 74ff bfb9 9bd3 133e
000000f0: bcfb 78b5 90d1 94bd 9366 433d fd76 2f3e
00000100: 957e 08bd c8e6 c4bc aae1 2fb2 f62b a9bb
00000110: ad1e 89bc a5e0 ebbd c7aa 2e3d a019 13be
00000120: 31c4 bbbd 1ef4 38b0 41e1 193e bfe6 1cb7
00000130: c264 56bd b8f8 8e3d e649 12be 8b4b 363d
00000140: 20dd 8eba c949 56b2 19e6 3b3e 4aff 243d
00000150: df62 593d 208f 81b8 ed77 97bd 80bf aea8
00000160: a111 a6bd 7b58 19b5 073c 4db8 1151 80bb
00000170: 2d30 22b6 84d8 683b 6eb7 95bc 89d7 16be
00000180: 1fbb 8b3d 5e3f ebbe 87e1 382b e963 0c3e
00000190: eff6 c3bb 9d02 febe 3ffa 1abf 2a26 35be
000001a0: c915 32bc 918e d828 66b5 30bd d153 0ab6
000001b0: 3986 473d 2ed6 14be 145a 8dba fcb3 573d
000001c0: 9b0b 183e 2d1b d2b5 9a74 94bd bf0f cfbe
000001d0: 598b 41be 7845 92bd ccb8 aa3b dc9b b828
000001e0: adc9 8cbd 58af cd32 3216 34b8 35e3 ecbe
000001f0: 04be 7cb5 1e55 2a3c 7489 6e3b ff53 7cbc
0.069795415 0.2680365 2.701187e-13 0.015434365 0.0068176975 -0.31867903 -0.006033279 0.051186204
0.05504341 4.4312615e-18 0.15502806 1.0325376e-06 -0.041310836 0.099397466 0.0681098 0.0688555
0.00551831 -1.5168205e-13 0.094782636 -0.0010877426 0.27146822 0.083359465 0.17361063 -1.3661977e-15
-0.018617963 -2.8512855e-07 7.06697e-09 0.24146114 1.04479376e-07 -0.37191334 0.01591255 0.08920887
-0.082618505 0.12908587 -0.00030734544 0.019621203 -0.0041612005 0.10904055 0.12696089 0.2538602
0.12233895 -0.00010853819 -0.061954837 -1.30037615e-05 0.036034632 0.111831315 0.030473452 0.019496622
0.041117143 -0.00010120618 -0.098416805 0.0843067 0.022460015 0.092458606 0.023406187 -1.5832603e-14
-0.05456662 -2.2013644e-08 -0.00036620686 0.1443619 -9.275352e-07 -0.072665334 0.047705244 0.17135234
-0.033323843 -0.024035826 -1.0237651e-08 -0.0051627113 -0.01673826 -0.11517457 0.042643335 -0.14365244
-0.0916828 -6.728572e-10 0.15027334 -9.352049e-06 -0.052342184 0.06981033 -0.14286003 0.044505637
-0.0010899641 -1.2473216e-08 0.18349494 0.040282525 0.053072806 -6.1778584e-05 -0.07395921 -1.940093e-14
-0.08108831 -5.71257e-07 -4.8931714e-05 -0.003915914 -2.4167923e-06 0.0035529444 -0.018275943 -0.14730658
0.068228 -0.45946783 6.5682914e-13 0.13709988 -0.0059803645 -0.4961137 -0.60538095 -0.1769034
-0.010869452 2.4042646e-14 -0.043141745 -2.061239e-06 0.04871199 -0.14534828 -0.0010784292 0.05266188
0.14848177 -1.5654128e-06 -0.072488025 -0.404417 -0.18900813 -0.07142156 0.005210018 2.0495697e-14
-0.06874404 2.3944878e-08 -4.2936015e-05 -0.46267095 -9.4153825e-07 0.01039627 0.0036397846 -0.015400886

convs.0.bias f4 [32]
00000000: e0ae f03b 6aeb e3bb e288 6029 4042 36bb
00000010: c4d1 5636 0a2a 273b 1630 4b3c 4813 de38
00000020: 52ea bd3b 98a2 5999 bcbc 973b 942c 89b4
00000030: 4a20 04ba 1da6 74bb a3e6 85bb 606b 9fb7
00000040: 3222 adbb 2649 ad27 8133 d43a 1d84 153c
00000050: c3c2 4ebc 3630 5abb 1feb 1dbb 73b7 fb25
00000060: 25cb b630 1093 0eaf 90cf 62b0 f7ab 923b
00000070: 7605 70b3 98b0 953b 4da4 fdbb 215b 5dbb
0.0073450655 -0.006955554 4.985672e-14 -0.0027810484 3.2010585e-06 0.0025507235 0.012401601 0.00010589376
0.0057957554 -1.12514726e-23 0.004630653 -2.5550673e-07 -0.0005040212 -0.0037330457 -0.004086332 -1.9004277e-05
-0.0052836174 4.8096454e-15 0.0016189666 0.009125737 -0.012619677 -0.0033292896 -0.0024096442 4.366587e-16
1.329998e-09 -1.2967072e-10 -8.2513285e-10 0.004476066 -5.588432e-08 0.0045681708 -0.0077405334 -0.003377624

convs.1.weight f4 [32, 32]
00000000: d743 7fbc 26b5 883c 5058 a83a 7470 ef3c
00000010: 5972 a7ba f3fd 45bb 8e03 802d 2285 c037
00000020: b6fb 4b38 b3d4 55bc 693d a9bc 428a 4139
00000030: 627e e93b 0d21 d9bc a818 32bc b152 1f3d
00000040: db8a 47bb a3af f1bc 104a 53b0 48da 3438
00000050: 85ae c829 56a4 8abb 22ba 69b8 9da5 75b8
00000060: 9076 ca2f d6d2 99b1 8d06 0839 19d5 3a3d
00000070: 2e1b 8b3c db33 0134 6eb2 8c35 85e1 e7b8
00000080: 0172 ca3d db4d d1bb d262 d1bb 46c7 0bbe
00000090: a27a d0bc e5a5 8b3c 3a21 8eb0 91c5 383a
000000a0: 7158 8cba ecef d93c 280b 96bd ac85 8b3a
000000b0: d656 e0bc 68bd da3d 4cc8 343d b7bd 26be
000000c0: 6c15 ce3c f391 a3bd 0442 e830 4976 623a
000000d0: f73c 1328 5567 b73d f44e c3b9 d1d0 d4b9
000000e0: 6b09 12af f8a7 b130 b41c 933d b3c1 10be
000000f0: cf8b 05bd 0301 2e37 2e9e 9a39 84fe 37b8
00000100: 8011 822a 7055 d7a9 793e 3caa c0a3 03af
00000110: fcf7 aea8 a496 b9a8 be6d 56a4 183b 2a2a
00000120: b276 9ba8 3a20 90aa 46e2 b0aa 0bb3 6729
00000130: a661 47aa 7993 41a9 ca06 cf27 f127 b3ab
00000140: 6a84 e926 298a b0a9 c85f 4a22 848d b4a2
00000150: 4ec7 2a22 a37d 4cab 0687 0127 2a6c 5fa6
00000160: f095 59a5 ea1c efa5 600f 0629 df00 812f
00000170: 91a3 c32a 199b a3a2 6f28 881f 1ec8 c729
00000180: e6f3 3cbe ecca 743c 0f7a 4f3c 434c 123c
00000190: cb02 18bc a23e 3aba 1b04 66b0 2181 9eb9
000001a0: e98f 7eba 3990 86bd 7f44 1fbd 34b1 99bb
000001b0: 153b 223d bfc4 03bd 934d d2bd ca31 1f3c
000001c0: 83f2 cdbc eb5b 733d 62f4 6ab1 46e8 1739
000001d0: 0bb1 8eaa 97c2 35bd ff6d b039 068a b339
000001e0: 8e4a a7b2 79ae 8534 7fa1 6fbd 9365 403d
000001f0: 91df 503d 6f79 5bb7 fd3f c736 62d6 abba
00000200: 52b8 b339 b45d 0ebb 4301 3cba f709 263c
00000210: eddc 2038 b283 3e3a 3fb0 72b0 876a e1b4
00000220: 4c6c 9637 b651 aebb 6904 0ebb 7335 ceb9
00000230: 451e 72ba 95b8 98bc 59d2 5bb9 33cd 48bb
00000240: 9e6f 44b8 aafc 3039 6205 57b0 d806 50b7
00000250: baa6 46aa 0a5e 1fbc 0c4a 76b7 2d66 f237
00000260: fb81 5b2f 1d19 d1b0 a717 a2bc f762 18bb
00000270: 3ab9 db3b 88e7 f2b4 9ed7 36b1 6d1b b736
00000280: 088a 093e 4976 83bd a1ac 34bc 9540 38be
00000290: d8b2 3839 676a 96bc b296 ebaf 987e 6cb7
000002a0: a425 2db8 8794 c83d 4707 0dbe 681d a6b6
000002b0: a681 14bd dbeb 4f3e 7b3e e63c 3bbc 3cbe
000002c0: 502d 96ba 3ca5 10bd 06c4 6132 fc6e 5939
000002d0: 385d 5e29 e4c1 523e 53e1 913a 84d8 a1ba
000002e0: 1605 9730 a3a1 8bb4 a0f9 bd3c d5f1 49be
000002f0: d998 03bc 9df3 83b6 6e64 b336 8653 28ba
00000300: 89a4 583e 7317 33be 2f61 cebc cf91 57be
00000310: 73c6 44bd 1c9c 1a3d 29bb 0a30 0399 a1bb
00000320: 809f 48ba 981a d93d 847f 34bd a688 54bc
00000330: fc48 dbbc 2e90 153e 4cc9 e13d 3c63 c8bd
00000340: 4285 1ebd 7625 5dbd 1053 44af 4954 e3b8
00000350: bc03 9328 c781 563e 4b6b 5f3b 6460 41bb
00000360: 50aa 9d30 4a17 69b5 8371 6d3d eb76 31be
00000370: d30c 28bd 36f5 bf35 f94b 6cb9 3c5a 6db9
00000380: 5fe3 2dbe 4dd9 03be 272d 283d 9673 043d
00000390: 8f7b aebd 8732 2e3d 99f4 a0b4 d226 16bc
000003a0: 9c60 58bb 4f5f 1cbd d2de 893d 2c00 88bd
000003b0: 7521 e43d ae4d cbb9 fcb0 2ebd 8710 fe3c
000003c0: 6093 5fbd a426 2abe d8b1 a731 7d5e 54b9
000003d0: c748 c62a a483 2b3d a7a7 68bb 4dfd 21bc
000003e0: 8b5c 9fb2 793f a3b3 083b 89bb 86b6 cc3c
000003f0: 44db 233d fa22 e0b6 4eb1 a3ba f162 77ba
-0.015580139 0.01668794 0.0012843702 0.029228427 -0.0012775167 -0.003021118 1.4553494e-11 2.2950178e-05
4.8633396e-05 -0.0130512 -0.020659165 0.0001845742 0.0071256617 -0.026505018 -0.010870136 0.03889722
-0.0030447755 -0.029502695 -7.68666e-10 4.3118634e-05 8.9120585e-14 -0.004231016 -5.572488e-05 -5.856679e-05
3.682783e-10 -4.4768553e-09 0.00012972411 0.045613382 0.016980734 1.2032926e-07 1.0482743e-06 -0.00011056945
0.09885026 -0.006387455 -0.006389954 -0.13650236 -0.0254491 0.017046878 -1.0341303e-09 0.00070484827
-0.001070751 0.026603661 -0.07326347 0.0010644696 -0.027385157 0.106806576 0.04413633 -0.16283308
0.0251567 -0.07986822 1.6898984e-09 0.00086388417 8.173359e-15 0.08955256 -0.00037252123 -0.0004059137
-1.3281969e-10 1.2926185e-09 0.07183209 -0.1413639 -0.032604035 1.0371444e-05 0.00029491022 -4.3867636e-05
2.3104782e-13 -9.562739e-14 -1.6719429e-13 -1.1972556e-10 -1.9425427e-14 -2.0604456e-14 -4.6496808e-17 1.5119535e-13
-1.7259933e-14 -2.56019e-13 -3.142089e-13 5.14476e-14 -1.7708629e-13 -4.298252e-14 5.7461402e-15 -1.2729801e-12
1.6203514e-15 -7.839937e-14 2.742681e-18 -4.8938933e-18 2.3144807e-18 -7.2649715e-13 1.7975543e-15 -7.7515257e-16
-1.887255e-16 -4.1479484e-16 2.9767313e-14 2.3465582e-10 3.4752455e-13 -4.4345455e-18 5.766513e-20 8.87209e-14
-0.18452415 0.0149409585 0.012663378 0.008929315 -0.00927801 -0.000710467 -8.3679347e-10 -0.00030232317
-0.00097107753 -0.06570477 -0.038883682 -0.0046903137 0.039607126 -0.032170054 -0.10268702 0.0097164605
-0.025140053 0.05941383 -3.4190397e-09 0.00014487011 -2.5347115e-13 -0.04437503 0.0003365129 0.00034244376
-1.9475262e-08 2.4900126e-07 -0.058503624 0.04697187 0.05099446 -1.3081691e-05 5.9381114e-06 -0.0013110156
0.0003427887 -0.0021723332 -0.0007171819 0.010134212 3.8352726e-05 0.0007267549 -8.828955e-10 -4.1987025e-07
1.7931823e-05 -0.0053197993 -0.002167011 -0.00039331205 -0.0009236078 -0.018642703 -0.00020963828 -0.0030639886
-4.6833993e-05 0.00016878793 -7.8224194e-10 -1.239936e-05 -1.7643778e-13 -0.0097270105 -1.4679983e-05 2.8896227e-05
1.9964112e-10 -1.5213889e-09 -0.019786669 -0.0023252347 0.0067054303 -4.5244474e-07 -2.660705e-09 5.457018e-06
0.13431561 -0.064190455 -0.011027486 -0.17993386 0.00017614232 -0.018361283 -4.2853326e-10 -1.4096171e-05
-4.128147e-05 0.09793954 -0.13772307 -4.950609e-06 -0.036256455 0.20304815 0.028105965 -0.18431179
-0.0011457596 -0.03531383 1.3141294e-08 0.00020736078 4.9374757e-14 0.20581776 0.0011129774 -0.0012347852
1.0988142e-09 -2.6008374e-07 0.02319032 -0.19721158 -0.008032047 -3.9324646e-06 5.3463073e-06 -0.00064211374
0.21156515 -0.17489414 -0.025192825 -0.21051715 -0.04804082 0.037746534 5.047008e-10 -0.0049315705
-0.0007653162 0.106007755 -0.04406692 -0.012972033 -0.0267682 0.14605781 0.110247225 -0.097845525
-0.038701303 -0.053990804 -1.7855606e-10 -0.00010839903 1.6321898e-14 0.20947944 0.0034091051 -0.0029506916
1.1471659e-09 -8.6833154e-07 0.05796958 -0.1733052 -0.041027855 1.4301975e-06 -0.00022535016 -0.00022635696
-0.16981266 -0.12875862 0.041058686 0.032336794 -0.08519661 0.042528655 -2.998029e-07 -0.009164529
-0.0033016568 -0.03817683 0.06731953 -0.06640658 0.11139194 -0.00038777053 -0.042649254 0.03101374
-0.054583907 -0.16616303 4.880558e-09 -0.00020253095 3.5222365e-13 0.04187359 -0.003550032 -0.009887052
-1.855212e-08 -7.6018246e-08 -0.0041879453 0.024989378 0.04000403 -6.679792e-06 -0.0012488754 -0.00094370457

convs.1.bias f4 [32]
00000000: ed5f cbbb ce98 90bb 2deb 743b b729 533b
00000010: f6f8 86ba b8ac aeba e7d2 722f 99f3 b137
00000020: 35fe 9ab8 c3b6 04bc b3bd 9bbb 15c4 e4b8
00000030: 40e3 223b 0af4 813a 3238 1abc 4b8c 193c
00000040: ba93 c1ba c4b7 123b 466d 2631 43f5 8eb9
00000050: d697 f927 bebb 5f3c 1be6 6f36 dcfc 02ba
00000060: fabb 31b1 ec8b 8cb3 38b8 9cbb 92ce 2e3c
00000070: b8d3 be3b b836 fc35 423a a235 31d9 c938
-0.0062065036 -0.004412747 0.003737162 0.003222091 -0.0010297585 -0.0013326621 2.20847e-10 2.1213478e-05
-7.390642e-05 -0.008100214 -0.0047528385 -0.0001090841 0.002485469 0.0009914648 -0.009412812 0.009371827
-0.0014768757 0.0022387365 2.4218294e-09 -0.00027267085 6.9276004e-15 0.013655601 3.5747714e-06 -0.00049967854
-2.5863742e-09 -6.54471e-08 -0.004782703 0.010669367 0.0058235787 1.8791388e-06 1.2086896e-06 9.624882e-05

convs.2.weight f4 [32, 32]
00000000: 8158 473e ebf3 7dbd 2eeb 27bd 7e39 14ba
00000010: a0b4 673d 309f f938 ce09 8b35 3194 4cbd
00000020: 7011 cfbc 0170 cabd 7484 1bbd 80ad 6b3d
00000030: e0e9 ccbc 42d6 953c ce34 a333 a7a5 693d
00000040: 2c6f ad3d 757e 243d 7815 82bc 999c 8cbb
00000050: 5190 2a3e b7b3 c3bd 0cbe e639 8905 2c3e
00000060: d661 c5ba 6fc6 91bd 08e9 23ba e551 0d3c
00000070: 6e99 d2bc cba1 30b2 5680 863d 1a32 133e
00000080: 4841 9bbd e805 ecbd fec5 163d fe9c db3b
00000090: 27fd 433d cc2f 1937 0ebf 9bb6 7922 a03c
000000a0: 95f9 f43c 7799 f93c 1584 cb3d a7fd 94bc
000000b0: 5f4e b53c 6128 2ebe e094 26b4 3ebb aebc
000000c0: bd39 fa3d 0414 e63d 3b02 f83d b423 673d
000000d0: ff96 ccbd eac6 2e3d c392 e93c 78d3 efbd
000000e0: 8f9c 013d ed86 4abd 494b 1abe 2d7b f4bb
000000f0: 180d 883d c2cf f7b6 7765 02be f070 7abd
00000100: d579 cbbb cb64 84ba 0afc 0a3c 57ce f739
00000110: e2c1 a03c 3832 c136 9697 36b7 8d46 6fba
00000120: 66af e13b 4dba c53a 4ae6 813c 0314 b7bb
00000130: a601 433a b65a efba 6abf d435 e9a8 a83c
00000140: 0e62 72ba 55f7 9d3c 003f 8c3c 4f3a 4f3c
00000150: f85d ebbb 0819 483c 2271 803c b0bb 1cbc
00000160: b427 b73c 0f2e 0b3b b43f 2dbb f589 9ab7
00000170: 7c21 8fba 0450 4234 0cd2 f63c de73 0bbc
00000180: c229 183b 5ea1 c13d dfdb bd3d 885a d9ba
00000190: 8d8d ca3d 6c0e 4db6 7896 9637 6591 2fbd
000001a0: 28f8 d93d 36fc 69bd d349 aa3d ad76 08ba
000001b0: 1413 2fbc f83b b43c f7ef 5b39 9184 d63d
000001c0: d3ff 563d f47b f43b 64a3 b43d 2c72 bd3c
000001d0: 228c 96ba 394e 8fbd 46ee b83d 1081 833c
000001e0: 91ba 6e3d a655 24bd fefd f5ba d95d 1139
000001f0: d1ca 34bd bc28 ae30 ac2d 9f3d 0052 e8b9
00000200: ff17 31bd 3220 c4bd d029 903d 1ebd 66ba
00000210: 4b5e 963a e0a0 8833 3bc0 b033 b4ee 20b8
00000220: 177b c13d 1ed9 903a 2e24 33be 2b26 bbba
00000230: 1229 f0b6 68be 303e c684 2931 c477 c2bd
00000240: a778 b83d 6413 2d3d a2dd ca3d 44ba bebd
00000250: 142e 1c3e 706b 543b c65b 683a 0c0b e33d
00000260: dec1 b8ba 0981 ccbc b4ed 2bbb c109 b2bb
00000270: 5e34 3b3c a400 00b9 dd01 813e 1463 d33d
00000280: c586 6dbd 570e b8bc f471 233c 74e8 5138
00000290: 0dab 1d3c 6841 4438 335c e936 2f77 963c
000002a0: 38e0 f63c 699e be3c 6968 253d 4fcb 6cbc
000002b0: 7860 c6bb 9766 a0bc efc3 8fb6 95a7 b3bc
000002c0: 2a2a 93bd 4937 403d c8f2 d53c 1729 fc3c
000002d0: dad8 b2bb 8a57 013d 93d3 5e3c ab46 adbc
000002e0: 50dd 463c 91dc 1f3c f3d8 f4bc 79be e9ba
000002f0: 3550 b63c b9b5 9c2e c30b aebc 3af9 2bbd
00000300: 32d1 5831 6ed3 0daa 87a3 2a2d e0d0 d8ac
00000310: 5787 4a2e 0348 8d2c 4bbe 05ab fa58 10ae
00000320: 2a2c c5ad ebda 9530 b483 93ae 3c8b 78b0
00000330: 4c87 d82f 33ff a32e 7069 c127 d2a0 3e2b
00000340: 0791 5931 d8fb 4e2e d9ab 2eaf 8228 972f
00000350: 0eed 13b0 a818 0aad bf89 91ad 6b39 5e30
00000360: 81b7 8dae e2d2 06af e14f 3431 38f8 be2d
00000370: 520f 542e 391d 79a4 d309 c72d 7124 b5b0
00000380: 55f2 b5b8 4fcd a93a 4131 1a3a b1a2 acb5
00000390: 545e 45b7 606f 2532 e28e f432 c540 ccb8
000003a0: bf8c 7b3a 9ca9 32b9 4af8 453a 09ce a639
000003b0: c89c 8138 eafc ff3a 0d71 9330 ae25 95b7
000003c0: ec0d ce3b 4806 fb3b 370c 363c ed31 513a
000003d0: f72f 8439 acc6 e1b9 6cfc 23b7 a7a4 423c
000003e0: 8eb8 3a39 50ed 4ab8 6089 0a3b 4f2c d637
000003f0: 89c6 b9b9 a079 71ab 7d1e 7d3b 8388 8f39
0.19467355 -0.062000196 -0.04099577 -0.0005654319 0.05656874 0.00011902896 1.0359161e-06 -0.049946014
-0.02527687 -0.09884644 -0.037968114 0.05753851 -0.025013864 0.018290643 7.599884e-08 0.057042744
0.0846847 0.04015966 -0.015879378 -0.004291129 0.16656615 -0.09555762 0.00044010615 0.16798986
-0.0015059065 -0.07117926 -0.0006252681 0.008625482 -0.025707927 -1.0281336e-08 0.06567447 0.14374581
-0.07580811 -0.11524564 0.036809914 0.0067020645 0.047848847 9.130639e-06 -4.6416017e-06 0.019547688
0.029904166 0.030468686 0.09937302 -0.018187357 0.022132097 -0.17007591 -1.5514115e-07 -0.021329518
0.12218044 0.112342864 0.121098004 0.056430534 -0.09989738 0.042670168 0.028512364 -0.11710256
0.031643447 -0.04944508 -0.15067782 -0.0074609728 0.066431224 -7.38536e-06 -0.12734018 -0.06114286
-0.006209592 -0.001010084 0.008482942 0.00047265246 0.0196237 5.7576945e-06 -1.0883339e-05 -0.00091276394
0.006887364 0.0015085429 0.01585688 -0.0055871024 0.00074389053 -0.0018261287 1.585094e-06 0.020588355
-0.00092461787 0.019282976 0.017119884 0.012648179 -0.007182833 0.012212999 0.015678946 -0.009566233
0.0223578 0.002123717 -0.0026435675 -1.8422472e-05 -0.0010920013 1.8096767e-07 0.030129455 -0.008511512
0.002321825 0.094546065 0.09270453 -0.0016582767 0.0989028 -3.0555775e-06 1.795146e-05 -0.04286327
0.10643035 -0.057125293 0.08314862 -0.00052056724 -0.010685701 0.022001252 0.00020974861 0.10474504
0.052490067 0.0074610654 0.08820227 0.02312573 -0.0011485855 -0.06997342 0.09029822 0.016052753
0.058283392 -0.040120743 -0.0018767712 0.00013863239 -0.044138733 1.2671744e-09 0.07772383 -0.00044311583
-0.043235775 -0.09576453 0.07039225 -0.00088019844 0.0011472193 6.3622565e-08 8.230605e-08 -3.8369282e-05
0.09447306 0.0011051034 -0.1749427 -0.0014278343 -7.1573386e-06 0.17260134 2.466821e-09 -0.094955
0.090073876 0.04225482 0.09905554 -0.09312871 0.15251952 0.003241267 0.0008863773 0.110860914
-0.0014095863 -0.024963873 -0.0026234211 -0.0054332917 0.0114260595 -0.0001220727 0.25196734 0.10321632
-0.057989854 -0.022467775 0.009975899 5.0045972e-05 0.009623301 4.6790956e-05 6.9546745e-06 0.018367378
0.030136213 0.023268895 0.040382776 -0.014452769 -0.0060539804 -0.019580169 -4.284542e-06 -0.021930495
-0.071857765 0.046927724 0.026116744 0.030781312 -0.0054579796 0.031577624 0.013600248 -0.021151861
0.012137726 0.009757177 -0.029888606 -0.0017833255 0.022255043 7.126339e-11 -0.021245843 -0.041985728
3.155105e-09 -1.259667e-13 9.699692e-12 -6.162279e-12 4.604969e-11 4.015456e-12 -4.7515176e-13 -3.2820836e-11
-2.241592e-11 1.0903397e-09 -6.708181e-11 -9.041974e-10 3.9386305e-10 7.457714e-11 5.3682577e-15 6.7724743e-13
3.1660095e-09 4.706266e-11 -1.588626e-10 2.7495523e-10 -5.3815163e-10 -7.849867e-12 -1.6545763e-11 8.0844725e-10
-6.4445345e-11 -1.226215e-10 2.6238853e-09 2.171073e-11 4.8216826e-11 -5.401802e-17 2.2628044e-11 -1.317984e-09
-8.6758904e-05 0.0012954863 0.0005881973 -1.2862348e-06 -1.17640775e-05 9.629588e-09 2.8470314e-08 -9.739542e-05
0.0009595863 -0.00017038587 0.00075519516 0.00031815495 6.180402e-05 0.001953033 1.0727789e-09 -1.777973e-05
0.0062882807 0.007660661 0.011111311 0.0007980157 0.0002521274 -0.00043063366 -9.774329e-06 0.0118800765
0.00017807094 -4.8381567e-05 0.002113901 2.553142e-05 -0.0003543387 -8.578919e-13 0.0038622909 0.00027376795

convs.2.bias f4 [32]
00000000: 0afe 91bc c237 ba3c 0052 a63c 1b7d edb9
00000010: d019 943c 2c66 0937 0443 1d36 a9f2 933b
00000020: 7d23 d93c 1abb 423c e662 163b b717 51bb
00000030: 6cd9 573c a080 9c3a 509c cd36 8044 ad3c
00000040: 9815 ef3b c513 b6b9 d0d8 6a3b ebbf 373c
00000050: 9319 76bc 7117 803c 43e3 a13c 61e7 2dbc
00000060: f09c 323c 2f3d 593b b066 01bc 8a5f 1039
00000070: ff15 c5bb 587a 04b0 14cb 8e3c b8c0 5cbc
-0.01782133 0.022731666 0.020302773 -0.00045297373 0.018078715 8.189625e-06 2.3433831e-06 0.0045150113
0.02650618 0.011885429 0.0022947132 -0.0031905004 0.013174396 0.0011940189 6.1276733e-06 0.021150827
0.0072962753 -0.00034728475 0.0035834797 0.01121519 -0.015020746 0.015636178 0.019761687 -0.010614247
0.010901675 0.003314804 -0.007898018 0.00013768501 -0.006014585 -4.819518e-10 0.01743082 -0.013473682

convs.3.weight f4 [32, 32]
00000000: b3df 8d3d d1d1 b6bb 93af f73c ea71 09bc
00000010: 1104 453d 2193 6cbb c51b bd3c 75f8 0cbc
00000020: b307 1fbc 049d 49bc 1d8c 413d 7d0d 68bb
00000030: 1888 6e36 21e7 003e e313 f9b9 c259 14bc
00000040: 0bea 85b7 d6cd 70bd b8de d3b1 7612 1cbd
00000050: 0911 8431 357e 8f3d 2c4e 8d3d 19b9 4e3d
00000060: c250 b73c 7fea 653a 54ef 82bb f51d 48bd
00000070: 56bb e63d 3284 663b 58c6 ba3a c18b 2bba
00000080: 72e0 323a d162 2f3d c2e8 ad3d 2bde 453d
00000090: 8759 583d 55e7 0d3d 2f57 4e3c 9b3d 233d
000000a0: 0fe6 503d 6cf0 633d f04e ff3b b315 523d
000000b0: 87dc 07b6 e1e8 973d cc21 0e3d 26ec 083d
000000c0: f459 49b7 b112 e0bc aff3 21b1 0743 ddbc
000000d0: d3bb 38b1 a192 87bb f29f 2f3a ce2d 08b9
000000e0: c3c5 083d 1284 253d 3bc1 0d3d 2774 fabc
000000f0: a287 0b3d 9cd3 4f3d ec6b 983b cd1e d0b9
00000100: be1a ff39 9d86 373d 33b3 713d 6e1c 563d
00000110: 447a 3f3d 5881 dab9 d08a fb3b 1249 2b3d
00000120: 5a78 403d fe73 283d e083 98bc 4ad8 343d
00000130: 0390 67b6 4cec 1f3e e5cd 86bc bade 053d
00000140: 025c a2b7 cc31 6cbd bc87 fcb0 670f dbbc
00000150: 2038 3ab1 c5a2 43bc 496c 053d bb8d 033a
00000160: 9423 7abd cbbf 313d b257 1e3d b180 22bd
00000170: cb9c ee3c 8ff7 97bd 603b aabb b8ac 01ba
00000180: 9cf8 e2b7 b53b afb9 e42f 77b6 b3d3 b737
00000190: ee04 63ba 133b 9039 a00d f1b5 d6a8 bdb8
000001a0: ea2c 72b9 070f 2037 e4ef be39 5fab 2839
000001b0: 4dc9 0334 1e41 623a 398c 8538 239d 21ba
000001c0: fb3a ec34 b058 693a f368 e52e e343 753a
000001d0: 872c 2cae 2027 16b7 ba9d 0ab9 3efc 26b9
000001e0: 2a0b a0b8 b367 ffb8 cffc d3b9 49ab 0bba
000001f0: d717 b2ba b24d c4b6 44dd 0539 0e44 a937
00000200: 9605 e5ba 3c13 873d ed70 b73c 11a3 813d
00000210: 336c 8f3d 811c 8d3c c625 793c 97c0 773d
00000220: 94fc 703d e898 2bbd f529 9e3b c5e6 af3d
00000230: c140 2cb6 9f6f 893c 074e 65bb c9da 5e3d
00000240: c425 9ab7 e22a f1bc a4e9 18b2 deca cebc
00000250: a6ac 73af 6f1d f8ba a1c3 18bc 19ad ccba
00000260: 7485 d7ba c1d8 8f3d 4ac7 623d c95a 19bd
00000270: 45b2 303d 94b5 34bc 3972 9cbb efbe 81b9
00000280: 3d32 9d39 3884 72b7 72be 1738 1eb7 dcb7
00000290: eeaf a438 e6a3 90b6 8298 8538 d41f 99b7
000002a0: 1d79 8eb7 80ca dd34 c19a 2437 ae5d 54b7
000002b0: a651 ae30 5e6c a538 7203 1d38 444a 58b7
000002c0: 4d16 9432 5218 ad37 b006 8b2c d154 3d38
000002d0: 32bf 28ad b4d2 8239 60d4 4739 0db5 fa38
000002e0: 848e ba38 4876 65b7 f4a8 9ab7 7c9f bf37
000002f0: ca96 8c39 b1d6 8f37 685c 1338 3eab a734
00000300: 2aeb 9e37 4202 6537 8468 4e37 b373 57b5
00000310: 756e 0438 90c3 af35 69b0 4437 1486 6937
00000320: 4084 27b5 6f8d fe33 ccc6 4c34 6d57 1337
00000330: e663 322f 45c5 a237 fd04 c534 2efd 3c36
00000340: 4c4c 35b1 8409 b835 148b 2d2a 50a9 d935
00000350: 8afa 93ab e88a 8037 16c2 6837 1d83 4d37
00000360: 3831 8836 1ea5 3437 271d a135 942a d436
00000370: a0a5 bf38 6000 8333 28c6 9136 fb7f 6ab3
00000380: ac82 5b3b ca1a 84bc 8c6a bbbc aa1a 04bd
00000390: 4a5e f9bc 9a80 97bb 2d9d 65bb b4df 9fbc
000003a0: a1d2 c9bc 9350 8b3a f96f 18bc 5c7b 04bd
000003b0: 53ef 7b34 95b5 1abc d166 423b 0c6d ccbc
000003c0: 4c97 b537 c815 f63c e2be 6e31 4b11 1a3d
000003d0: 2e07 2cb0 3bb1 833c fe96 fd3a a72c 183b
000003e0: 0cab babb bcc1 06bd 2982 bebc 0b44 263d
000003f0: 9a1b bfbb 9e24 5839 d378 ae3c 00ca f738
0.06927433 -0.0055792113 0.030235087 -0.008388976 0.04809958 -0.0036098438 0.02308453 -0.008604159
-0.0097064255 -0.012305502 0.047252763 -0.003540843 3.554398e-06 0.12588169 -0.00047507798 -0.009054603
-1.596382e-05 -0.05879005 -6.1662284e-09 -0.038103543 3.8436423e-09 0.07006494 0.06899676 0.05046949
0.022377376 0.00087705994 -0.0039958153 -0.048856694 0.112662 0.003517401 0.0014249785 -0.0006543957
0.0006823606 0.042818848 0.08491661 0.04830758 0.052819755 0.034644444 0.012594028 0.039853673
0.05100065 0.055649206 0.0077913925 0.051290225 -2.0244931e-06 0.07417465 0.0347002 0.033428334
-1.2001477e-05 -0.027352663 -2.3567102e-09 -0.0270095 -2.688229e-09 -0.0041373526 0.0006699554 -0.00012987034
0.033391725 0.040409155 0.034608107 -0.030572964 0.034064896 0.050738916 0.004651537 -0.000396958
0.00048657315 0.04480611 0.05900879 0.052273206 0.04674746 -0.0004167657 0.00767646 0.041817732
0.046989776 0.041126244 -0.01861757 0.04415158 -3.4505508e-06 0.15617484 -0.0164556 0.03268311
-1.935475e-05 -0.057664678 -1.8373991e-09 -0.026740743 -2.7098466e-09 -0.011940663 0.032573972 0.0005018373
-0.061069086 0.0433958 0.03865785 -0.03967351 0.0291275 -0.07420265 -0.0051950663 -0.00049466966
-2.7057067e-05 -0.00033423086 -3.6833744e-06 2.191388e-05 -0.00086600974 0.00027509834 -1.7959865e-06 -9.0436704e-05
-0.0002309565 9.540242e-06 0.00036418356 0.00016085569 1.2273559e-07 0.0008630919 6.368053e-05 -0.0006165078
4.400134e-07 0.000890146 1.0432357e-10 0.0009356124 -3.914782e-11 -8.949806e-06 -0.00013219463 -0.00015924961
-7.631474e-05 -0.00012178663 -0.00040433413 -0.00053279527 -0.0013587427 -5.8503e-06 0.00012766296 2.017806e-05
-0.0017472978 0.065954655 0.022392714 0.063299306 0.07003059 0.017225506 0.01520676 0.060486402
0.058834627 -0.04189387 0.004826779 0.08588938 -2.566769e-06 0.016776858 -0.0034989135 0.05440787
-1.8375817e-05 -0.029439393 -8.900688e-09 -0.025243219 -2.2162058e-10 -0.001892967 -0.009323985 -0.0015615552
-0.001644297 0.070237644 0.055365838 -0.037440095 0.04313876 -0.01102962 -0.0047743586 -0.00024747054
0.00029982804 -1.4455109e-05 3.617857e-05 -2.6311314e-05 7.852899e-05 -4.3106147e-06 6.370341e-05 -1.8253842e-05
-1.6984117e-05 4.1311796e-07 9.811193e-06 -1.2657996e-05 1.2683372e-09 7.887998e-05 3.7434926e-05 -1.2891895e-05
1.7239609e-08 2.0634532e-05 3.95136e-12 4.5140103e-05 -9.592148e-12 0.00024952518 0.00019057235 0.00011954652
8.895717e-05 -1.3677003e-05 -1.8436906e-05 2.284324e-05 0.00026815227 1.7146902e-05 3.513359e-05 3.123077e-07
1.8944575e-05 1.3649989e-05 1.2302891e-05 -8.0262106e-07 3.1574124e-05 1.3095432e-06 1.1723584e-05 1.39191e-05
-6.2404797e-07 1.1853523e-07 1.9071302e-07 8.782238e-06 1.6224497e-10 1.9403766e-05 3.669774e-07 2.8161553e-06
-2.6382336e-09 1.3711838e-06 1.5413739e-13 1.6217036e-06 -1.0514517e-12 1.5323472e-05 1.3873467e-05 1.2249479e-05
4.0588457e-06 1.076728e-05 1.2003919e-06 6.323049e-06 9.13844e-05 6.100231e-08 4.344405e-06 -5.4598768e-08
0.0033494635 -0.016126055 -0.022877954 -0.03225199 -0.030440468 -0.004623485 -0.003503631 -0.01951585
-0.024636569 0.0010628871 -0.00930404 -0.032344207 2.3463262e-07 -0.009442707 0.0029663334 -0.024954341
2.1647335e-05 0.030039683 3.4742063e-09 0.037614148 -6.258344e-10 0.016075721 0.0019347367 0.0023219974
-0.00569666 -0.032899603 -0.023255425 0.040592235 -0.005832148 0.00020613006 0.021297848 0.00011815503

convs.3.bias f4 [32]
00000000: 2dd2 b0bb d150 da3c 1651 743c 6e41 0d3d
00000010: 14ef 8d3c 7043 d13c cec5 683c 9acc ee3c
00000020: 35c8 ab3c b1c8 9338 f871 6ebc 7ac7 d33c
00000030: 9466 dab5 aeb8 0d3c a394 c03a a40b 8f3c
00000040: c0f2 7e34 c5e6 5f3d fcfe 83b0 4902 3f3d
00000050: 1ad5 9db1 6ffd d63b bf3f 14bc 1abd 33bc
00000060: 44e1 f6bb d1e7 d73c 8fc5 8d3c c24e 883d
00000070: 3d6e e03b 8c5d 683a aef0 9c3c 13a9 f939
-0.0053961487 0.026649864 0.0149119105 0.034486227 0.017325915 0.025544852 0.014207317 0.029150296
0.02096949 7.046888e-05 -0.014553539 0.025851954 -1.627212e-06 0.008649988 0.0014692735 0.017461605
2.3743905e-07 0.05466344 -9.603975e-10 0.04663304 -4.5935282e-09 0.0065609734 -0.009048401 -0.010970378
-0.007534178 0.026355656 0.017306117 0.06655647 0.006849079 0.0008864037 0.019157734 0.0004761895

convs.4.weight f4 [32, 32]
00000000: bbcc 5abd 4fc5 28bc bcf2 cd3c 2322 753d
00000010: 0a0e 443c 5642 9a3b 1bd1 553c ce1a 943c
00000020: e5ff 603c 4b56 483a 7552 6e3c b10f 7c3c
00000030: 089e 42bd 5e35 ff3d e21d 323d 67ab d43d
00000040: a4ea a8b2 87e6 4c3c ba78 02bc ef64 c33b
00000050: 21d4 cf3c f780 7839 1bbe 5d3c b73a 6a3d
00000060: e1f2 d93d 9682 853c 5ebf 483c 1898 0abd
00000070: 749d 9fbc 44bb fd3a 79dd ce3c 16d1 b2bd
00000080: 8da0 8c3c 0d5d 91bc e6ce 383d 8b63 46bd
00000090: d638 003d 30bc 7abd 7b6e 41bd 7b2d 483d
000000a0: 44d8 2c3d baf7 7d3a 6b28 f73c d3a2 0e3d
000000b0: e8e7 be3b 8fac 13bd d220 17bb e6b7 9f3d
000000c0: c4e1 2bb4 9ebf 51bd 93fa aebc 0234 c53d
000000d0: b925 073d 241c 4a3a a8f7 243c 7c12 863d
000000e0: a147 243e d2b2 023d ac02 0b3d 6356 9d3c
000000f0: cbd8 6fbb 09ab bf3a 68a1 013d 98f8 b83d
00000100: abb9 5d3c aca2 ecbc 6113 4a3d fb9a 25ba
00000110: dadb 1a3d 33ab b5bd 5858 913d b797 2e3d
00000120: bbcb 393d 18c0 4eb9 5267 233d 9bda 0e3d
00000130: 3f71 06bc c099 86bd 3658 15bb 13f9 2d3d
00000140: 8a06 c933 52e5 4ebb b43b abbc 9828 9a3d
00000150: 9117 213d 4e7a 843a 7daa 0b3c 1d41 673d
00000160: 7d56 9c3d f82e 373d 2af3 2e3d 5391 07bd
00000170: d99a f8bb 44f3 553b 85e1 293d 927d b9bc
00000180: 160e 853a e4d0 9bbc b801 843d b6b2 a7bb
00000190: cc7a 643d c122 36bd 2857 843d 525f 5f3d
000001a0: a584 813d cfa4 c43b 4dff 3f3d a973 433d
000001b0: 0e8b 39bc ad36 b0bc 4b2d 08bb 3605 863d
000001c0: 4abb 4eb4 9306 3abb 8899 3ebc a487 593d
000001d0: 606d 633d 45ab be3a 3005 c73c 9026 903d
000001e0: 870f f33c 0202 573d 6a71 6a3d d813 5bbd
000001f0: 43b7 40bc ab75 8f3b 0efd 2e3d f356 babc
00000200: 48b7 a4bb 6836 eebc 68de 4e3d fe9f 84bb
00000210: 9b4e 2b3d 0e01 03bd 667a 433d 7b7d 3c3d
00000220: f494 583d 5d42 e63a 7fd8 0d3d 5604 273d
00000230: 0a73 34bc 2d49 b4bb 29ae c2bb 9da0 643d
00000240: f936 76b4 91de 7ebb fbc5 6abc 67f3 2c3d
00000250: f1ec 4a3d 00d9 053b d2b2 3c3c b195 6b3d
00000260: d6b0 2f3d fb52 313d e44c 523d 7ca1 f5bb
00000270: 202b 1cbc ec86 313b 7ee3 403d cef3 5bbc
00000280: 8e18 aaba 0225 11bc 5334 fc3c fed7 dcba
00000290: f179 b23c ab48 473c 44f6 223d 173a 8f3c
000002a0: 508b d03c 80b4 663a f83f 6a3c c9be 4a3c
000002b0: 9275 9abb f859 b03b 9a49 81b9 bdba 6e3c
000002c0: 4af1 50b4 c8af 9eb9 125c f73b 4088 9c3c
000002d0: b4f3 7f3c bb2c 213a 6cd9 593c ad56 e13c
000002e0: def6 a33c a279 a53c ba8e 153d a9ca 2b3c
000002f0: b5bd 03bb f680 1b3a 5077 d43c 0720 cabb
00000300: 64dd a8bc 5aa2 e6bb b917 903c 8a6d 8abc
00000310: a859 553c e9d7 0abc 1bca fa3c fe27 553c
00000320: 918d 7a3c ffe3 e039 fab0 3f3c 9753 483c
00000330: 102f 51bc 9e4a 88bd 101d 9a3a 885f 11bd
00000340: fcd7 34b3 3b6f 283c 7029 e7bb bff2 923c
00000350: af68 833c 92a9 a339 34f6 b63c 42f0 4b3c
00000360: f626 6fbc 5cb1 653c fd2a 6b3c 83a7 863c
00000370: 8936 9d3c 8c49 0f3b cbd7 6f3c b417 38bc
00000380: 9fb0 4fbb d7fc c0bc 52f9 3d3d efdb 65bb
00000390: dc2b 363d f2b6 c7bc 3d47 183d fdae 1a3d
000003a0: d12c 4f3d fd44 e23a 010d 0e3d 98c4 093d
000003b0: 9c37 31bc b4b4 163a a70a d3b9 fa14 343d
000003c0: 1b14 ff34 ccb9 30bb 3857 99bc 860b 073d
000003d0: db47 1b3d 1a58 8e3a 1012 8c3c 2254 4e3d
000003e0: fe8c 133d 882c 293d b06e 413d 5342 30ba
000003f0: c38d c5bb d1da d03a 1026 2c3d 517d 43bc
-0.053417902 -0.010300948 0.025140159 0.05984701 0.011966238 0.004707615 0.013050343 0.018079188
0.013732885 0.0007642253 0.0145460265 0.0153846005 -0.04751399 0.12461351 0.04348553 0.10384255
-1.9664476e-08 0.012506134 -0.007963354 0.00596296 0.025369706 0.00023699166 0.013534094 0.0571849
0.106420286 0.01629762 0.012252657 -0.033836454 -0.01948426 0.0019358178 0.02525209 -0.08731286
0.0171664 -0.017744565 0.04511919 -0.048434775 0.031304203 -0.061214626 -0.047224503 0.0488715
0.042198434 0.0009688098 0.03017064 0.03482325 0.005825985 -0.036053237 -0.0023060334 0.07798748
-1.6007749e-07 -0.05120813 -0.021359717 0.0962906 0.03299496 0.0007709882 0.0100688115 0.06546494
0.1604295 0.031908818 0.033938095 0.019206231 -0.0036597725 0.0014623116 0.03164807 0.090317905
0.013533036 -0.028886162 0.049334887 -0.00063173444 0.037807323 -0.08870544 0.07096928 0.042625155
0.04536031 -0.00019717251 0.039893456 0.034876447 -0.008205711 -0.06572294 -0.0022788174 0.042473864
9.360981e-08 -0.003156979 -0.020902492 0.07527274 0.039329115 0.001010725 0.008524534 0.05645858
0.07633684 0.044722527 0.042712368 -0.033097576 -0.0075868187 0.0032646218 0.041474838 -0.022642884
0.0010151293 -0.019020505 0.0644564 -0.0051177396 0.05578117 -0.044466738 0.06461936 0.054534264
0.06324128 0.006001092 0.046874333 0.047717724 -0.011324657 -0.021510446 -0.002077895 0.06543963
-1.925338e-07 -0.0028385266 -0.011633284 0.053107873 0.05552423 0.0014546892 0.024294466 0.07038605
0.02967049 0.05249215 0.057237066 -0.05348572 -0.011762443 0.004378041 0.0427218 -0.022746539
-0.0050267316 -0.029078677 0.050505072 -0.004047393 0.04182301 -0.031983428 0.04772415 0.046018105
0.052876428 0.0017567385 0.034630295 0.04077562 -0.011013756 -0.0055018873 -0.0059411717 0.055817235
-2.2930534e-07 -0.0038889984 -0.014329429 0.042224314 0.04954237 0.0020423532 0.011517243 0.057515804
0.042893253 0.043292027 0.05134286 -0.007496057 -0.009531766 0.0027088476 0.047091953 -0.013424827
-0.0012977289 -0.008858921 0.030786669 -0.0016849039 0.021786662 0.0121633215 0.03978564 0.017483754
0.025457054 0.00088007003 0.014297478 0.012374588 -0.0047137225 0.005381819 -0.00024659635 0.014570889
-1.945929e-07 -0.00030267076 0.0075488174 0.019107938 0.015622068 0.0006148328 0.013296466 0.02750715
0.020015176 0.0201996 0.036513068 0.01048533 -0.0020102088 0.00059319974 0.025935799 -0.0061683687
-0.02061338 -0.007038397 0.017589437 -0.016897935 0.013021864 -0.008474329 0.03061395 0.013010023
0.015292541 0.0004289448 0.011699909 0.012226961 -0.012767568 -0.06654857 0.0011757929 -0.035491496
-4.2105953e-08 0.010280426 -0.0070545003 0.017938016 0.016041128 0.00031216122 0.022334196 0.012447419
-0.014596691 0.014019337 0.014353511 0.016437298 0.019191043 0.0021863906 0.014638851 -0.01123612
-0.0031690968 -0.023558063 0.04638035 -0.0035073718 0.04447542 -0.024379227 0.037177313 0.037764538
0.05057985 0.0017262992 0.03468037 0.033634752 -0.010816481 0.0005748973 -0.00040252993 0.043965317
4.751208e-07 -0.0026966212 -0.018718347 0.032969974 0.037910324 0.0010859997 0.017098457 0.050373204
0.036023133 0.041302234 0.0472247 -0.000672375 -0.006028862 0.0015934353 0.042028487 -0.011931733

convs.4.bias f4 [32]
00000000: 979c 433b 82bd 673d a87c 2e3d 570e 07bc
00000010: e9c3 f03c 98ef 2e3e 6d3a 7c3d ec4e 123d
00000020: 1526 133d bc64 1f3b 7a83 093d 4612 f33c
00000030: 3d9a 763d 2b75 ff3d 7204 89bc fbc1 643d
00000040: 0265 0535 6560 b8bb 44f7 d83d 02e9 3a3d
00000050: 1df5 213d 0675 013b 0265 0d3c d440 1c3d
00000060: 351d 263d f4bc 093d 02c0 213d 4130 343e
00000070: fdcc 743d c659 af3b c050 273d 15ac 0b3e
0.0029847973 0.056577213 0.04259935 -0.008243165 0.029390292 0.17083585 0.061579157 0.035719797
0.03592499 0.0024321517 0.03357265 0.0296718 0.060205687 0.1247352 -0.016725753 0.055849057
4.9693347e-07 -0.0056267255 0.10594037 0.04563237 0.0395404 0.001975359 0.008630039 0.038147762
0.040555198 0.033627465 0.039489754 0.17596532 0.059765805 0.005351278 0.040848494 0.13639863

convs.5.weight f4 [32, 2]
00000000: 42a0 dabd 6993 babd b8ea c4bd ab62 963d
00000010: c96a 273d e4a1 3dbe 023b 2abe 5f8d 18be
00000020: 42dc 453d 0c49 30be a65b 34be 2400 3a3e
00000030: 6c4b 2e3e 76b4 09be 2ab7 883e 9dd9 d53d
00000040: a752 05be 0fce a4be ff1d 313b 55df 35bb
00000050: 13bf 673d ee7a d9bd 4011 c7bd a433 6fbe
00000060: d9f0 26be f287 63bd be4d 1dbe daf0 863d
00000070: 1a28 e23d f615 793d a24e b83d 7004 57be
00000080: 18f8 9ab7 061c 9cb7 0203 9f3b 5257 7d3d
00000090: 4ebc e8bd 64af d53d 6b89 b73d 94ad ffbd
000000a0: 3cad 973a 701e 50be 72a2 09bd 18eb 18bd
000000b0: 3c63 733d 9c2e 29bc 128c debd 12da a1be
000000c0: 81e6 6c3d e177 4dbe 176a 193e cb77 14bd
000000d0: ad77 033e 1824 bfbd 14c8 b8bd 87c0 813e
000000e0: 30f6 cebd 3451 0a3d 0918 ce3b 09a5 d0bb
000000f0: 139e f73d 07d1 f4bd 8120 b0bd b8f4 2e3e
-0.10675098 -0.091101475 -0.096150815 0.07343038 0.040873323 -0.18518788 -0.16624072 -0.14897679
0.048305757 -0.17215365 -0.17613086 0.18164116 0.17020959 -0.13447747 0.26702243 0.10441897
-0.1301981 -0.3218846 0.0027025936 -0.0027751524 0.056578707 -0.1061915 -0.09720087 -0.23359543
-0.16302814 -0.05554957 -0.15361688 0.065889075 0.11042805 0.06081196 0.08999373 -0.20997787
-1.8473758e-05 -1.8609699e-05 0.0048526535 0.061850853 -0.11364041 0.10433844 0.08961757 -0.12484279
0.0011572014 -0.20324111 -0.033602186 -0.037333578 0.05942081 -0.010326054 -0.1086656 -0.31611687
0.057837013 -0.20065261 0.14981876 -0.036247056 0.12838621 -0.09333056 -0.09022537 0.253422
-0.1010555 0.033768848 0.0062894863 -0.00636733 0.12090697 -0.11953931 -0.0859995 0.1708554

convs.5.bias f4 [2]
00000000: 6b9f fd3c 6d9f fdbc
0.030959805 -0.03095981
