models/model.pt (torch, 5567 bytes, 8 tensors)

conv1.weight f4 [4, 16]
0.23182353 0.26517278 -0.50747466 0.4938101 0.195426 -0.041719288 -0.100649655 0.051230174
0.035496473 0.5434302 0.3610794 -0.2443146 -0.08627392 -0.39117032 -0.43085015 0.57785887
-0.45559153 -0.33835033 -0.098729484 -0.11899021 0.30587736 0.2791495 0.05175908 -0.33747846
-0.07487183 0.25936455 0.05005076 0.031796906 0.20972568 -0.29251078 -0.167542 -0.2127122
0.53953266 -0.06209681 -0.15767968 0.31291294 -0.35363364 -0.23230703 -0.43682805 0.34663513
-0.016886324 -0.18251047 -0.34288007 0.08361289 -0.21591774 -0.27815852 -0.12189645 0.13911945
-0.28672397 -0.15271877 0.228517 -0.17689227 -0.14795281 -0.5484119 0.34996974 0.3664076
0.6150193 -0.60345435 -0.11500818 -0.5648348 -0.68884605 0.15934327 -0.2895639 0.48482567
00000000: 2663 6d3e bac4 873e dce9 01bf add4 fc3e
00000010: c11d 483e d8e1 2abd 6821 cebd bbd6 513d
00000020: c064 113d 3e1e 0b3f 66df b83e 9b2d 7abe
00000030: 62b0 b0bd 7a47 c8be 6498 dcbe 8fee 133f
00000040: 4b43 e9be 413c adbe af32 cabd 24b1 f3bd
00000050: f59b 9c3e afec 8e3e 5401 543d fac9 acbe
00000060: 6756 99bd 6ecb 843e 0702 4d3d 793d 023d
00000070: 54c2 563e f9c3 95be 2190 2bbe 3ad1 59be
00000080: d01e 0a3f 3a59 7ebd c876 21be 2036 a03e
00000090: 780f b5be e5e1 6dbe eda7 dfbe 297a b13e
000000a0: 3055 8abc 06e4 3abe fa8d afbe 3c3d ab3d
000000b0: 8a19 5dbe cb6a 8ebe d9a4 f9bd 5475 0e3e
000000c0: 7ccd 92be 4f62 1cbe 5c00 6a3e 3f23 35be
000000d0: f180 17be b964 0cbf 3c2f b33e c799 bb3e
000000e0: e871 1d3f fc7b 1abf 6989 ebbd 0399 10bf
000000f0: 3758 30bf e22a 233e b841 94be 123b f83e

conv1.bias f4 [16]
-3.557373e-05 -0.008770898 0.02527716 -0.14017634 -0.050064337 -0.032369677 0.01732422 -0.0068634283
0.08265679 -0.15708466 0.0057474156 -0.14070338 -0.044221707 -0.01413098 0.018009767 0.028422898
00000000: 0035 15b8 d0b3 0fbc 0c12 cf3c 638a 0fbe
00000010: 4310 4dbd 1196 04bd 86eb 8d3c 9ce6 e0bb
00000020: f747 a93d cdda 20be d154 bc3b 8c14 10be
00000030: d221 35bd a085 67bc 3889 933c 23d7 e83c

conv2.weight f4 [16, 16]
-0.1910373 -0.13149524 0.02637914 -0.22284387 -0.21013825 0.03750661 0.15936153 -0.4335009
-0.22058323 0.025076471 -0.16420667 0.10271997 -0.4214228 0.38660914 0.19276905 0.23230559
-0.4168447 6.9911475e-06 -6.7825425e-07 0.100561604 -2.3575649e-07 -0.078594185 -0.00042114104 8.001146e-06
0.06378607 -0.04467444 -9.345305e-06 -9.106936e-06 0.023305595 0.16734686 -0.2630846 -0.005074462
-0.07429813 0.10060261 -0.21469378 -0.30134255 -0.18156987 0.05965963 -0.49773222 -0.22496292
0.30173114 -0.3346068 -0.27274016 0.18423457 -0.038547285 0.08749029 0.26484138 -0.25008386
0.14568865 0.0611208 -0.3621029 0.31309053 -0.3214364 0.20242316 -0.25833037 -0.4464099
0.22985302 0.25468618 -0.45712215 -0.2975686 0.25092357 -0.08486048 0.065150395 -0.10105901
-0.16460824 -0.15697156 0.14390425 -0.36915597 0.02395263 -0.12725218 -0.02300823 -0.23508897
-0.4514128 -0.47726882 -0.39659584 0.13302004 0.10331263 -0.21268831 0.065064155 0.13242863
0.01564832 -0.18731377 0.045836806 -0.038604368 0.1651207 0.2750378 -0.556082 -0.23321022
0.15465215 0.15722324 -0.22382821 -0.010289579 -0.058475714 0.041775268 0.073982775 -0.37343225
-0.1882379 -0.15772484 -0.45150417 -0.07811205 -0.041777655 -0.19576494 0.0820675 -0.26904538
0.15263559 -0.24691638 0.122279294 -0.080881104 0.26402387 -0.06381813 -0.41779375 -0.14329211
-0.13133204 -0.06832742 -0.5607736 -0.30873227 0.17163299 0.042786155 -0.4006491 0.28932104
-0.21283732 -0.10511443 0.09578235 0.007333953 -0.4006101 -0.12900892 0.19683956 0.14256102
-0.00880791 -0.029406965 0.24991335 -0.04697173 0.099912055 -0.22013767 -0.36895946 -0.08142924
-0.4017727 0.0074493466 -0.22479369 -0.38646877 -0.020834403 0.18624365 -0.2392597 -0.36062333
0.16824187 -0.094860025 -0.16009946 0.20806094 -0.19213702 -0.102539815 0.22524332 -0.26652837
0.06423654 -0.31389976 0.23512746 -0.103907205 -0.08344268 -0.11120533 0.25112182 0.2221946
0.34330055 -8.172958e-06 -0.21588759 -0.16467817 -0.11926802 0.28093657 0.09302634 2.6676703e-06
-0.37911308 -0.1404574 -0.2922575 -0.21003892 -0.33952895 -0.010834424 0.1903386 -0.22062144
-0.45510542 -0.18307106 -0.62019944 -0.34249014 -0.35961267 0.040269848 0.23195292 0.07316271
-0.046712723 0.20281883 -0.24889432 0.4411834 -0.036480453 -0.10217563 -0.06824764 0.30767605
-0.12580667 0.040352527 -0.42488107 -0.21285965 -0.3379678 0.40707362 -0.21145491 -0.06414126
-0.04966455 0.26752952 0.18062405 0.24388331 -0.23792781 0.30385843 0.26182866 -0.10407162
0.0006464941 -0.21208994 0.03515347 0.039667074 -0.2631741 -0.022781525 0.13149783 0.22822969
-0.23819186 0.21062668 0.2262583 0.06622469 0.2707307 0.013387826 0.19305764 0.016751487
0.024399264 0.25510386 1.0172882e-05 -3.904181e-06 -0.10868883 -0.07269948 0.121346325 0.15238425
-0.24242923 -0.20064624 0.0138270445 0.40082186 -0.3650658 0.019697502 -0.021287546 0.22872335
-0.076101735 -0.37717137 -0.3839953 0.14803973 -0.21660519 0.031427294 -0.23287895 -0.1289295
0.14919335 -0.36794373 -0.09223357 -0.32578745 -0.3216764 0.16357045 0.19140247 0.095957085
00000000: 489f 43be b0a6 06be 1119 d83c 2f31 64be
00000010: 7b2e 57be 88a0 193d ab2f 233e d4f3 ddbe
00000020: 92e0 61be 2c6d cd3c cb25 28be d95e d23d
00000030: bbc4 d7be a2f1 c53e 4065 453e 84e1 6d3e
00000040: ab6c d5be 8095 ea36 4711 36b5 3ef3 cd3d
00000050: 4024 7db4 fdf5 a0bd 98cc dcb9 a93c 0637
00000060: 45a2 823d 8cfc 36bd c8c9 1cb7 fec9 18b7
00000070: 60eb be3c fa5c 2b3e 06b3 86be ac47 a6bb
00000080: 9e29 98bd be08 ce3d b0d8 5bbe 9249 9abe
00000090: 74ed 39be a85d 743d c2d6 febe ae5c 66be
000000a0: 817c 9a3e 9551 abbe 99a4 8bbe fda7 3c3e
000000b0: c2e3 1dbd 1c2e b33d 4a99 873e fe0a 80be
000000c0: 682f 153e ce59 7a3d 8d65 b9be 674d a03e
000000d0: 5093 a4be 0448 4f3e e143 84be d78f e4be
000000e0: 975e 6b3e 3a66 823e ea0b eabe e95a 98be
000000f0: 0e79 803e 55cb adbd 926d 853d 07f8 cebd
00000100: 108f 28be 27bd 20be a35b 133e 0302 bdbe
00000110: 4e38 c43c 654e 02be c17b bcbc 2abb 70be
00000120: 941f e7be 945c f4be 9c0e cbbe 6836 083e
00000130: 9295 d33d f7ca 59be 5b40 853d 5f9b 073e
00000140: e830 803c 2ecf 3fbe 60bf 3b3d 9d1f 1ebd
00000150: 6715 293e c1d1 8c3e 645b 0ebf a9ce 6ebe
00000160: 225d 1e3e 21ff 203e 3933 65be 9f95 28bc
00000170: 3b84 6fbd 8b1c 2b3d 4884 973d 8332 bfbe
00000180: 70c1 40be 9f82 21be 8e2b e7be 36f9 9fbd
00000190: 0c1f 2bbd 9b76 48be 0113 a83d 51c0 89be
000001a0: 814c 1c3e a6d7 7cbe 916d fa3d fea4 a5bd
000001b0: 232e 873e 14b3 82bd 10e9 d5be 2bbb 12be
000001c0: e87b 06be 3fef 8bbd dc8e 0fbf 2812 9ebe
000001d0: 8fc0 2f3e 8940 2f3d e121 cdbe e321 943e
000001e0: 07f2 59be 3c46 d7bd 8929 c43d a851 f03b
000001f0: c41c cdbe ea1a 04be 4f90 493e 84fb 113e
00000200: 0d4f 10bc e0e6 f0bc 49e9 7f3e 6e65 40bd
00000210: b19e cc3d c56b 61be 41e8 bcbe 60c4 a6bd
00000220: 27b5 cdbe a619 f43b 5130 66be 3cdf c5be
00000230: e9ac aabc a8b6 3e3e 7f00 75be 9fa3 b8be
00000240: 9947 2c3e f945 c2bd 1df1 23be ed0d 553e
00000250: 91bf 44be 6500 d2bd 2fa6 663e 6876 88be
00000260: 728e 833d 78b7 a0be 41c5 703e 4dcd d4bd
00000270: ffe3 aabd 9fbf e3bd 0a93 803e fb86 633e
00000280: 17c5 af3e 961e 09b7 a311 5dbe 65a1 28be
00000290: cb42 f4bd ebd6 8f3e 9884 be3d 3a06 3336
000002a0: 1c1b c2be 11d4 0fbe c6a2 95be 7114 57be
000002b0: bdd6 adbe de82 31bc 1fe8 423e 96ea 61be
000002c0: 9403 e9be fb76 3bbe 64c5 1ebf de5a afbe
000002d0: 271f b8be fff1 243d 1185 6d3e 55d6 953d
000002e0: d755 3fbd bdaf 4f3e 27de 7ebe cae2 e13e
000002f0: 876c 15bd 7541 d1bd 6bc5 8bbd b787 9d3e
00000300: 77d3 00be b148 253d 038a d9be e1f7 59be
00000310: 1e0a adbe f46b d03e a387 58be 7e5c 83bd
00000320: 0e6d 4bbd a1f9 883e 83f5 383e 8cbc 793e
00000330: 59a3 73be 5593 9b3e 680e 863e 8023 d5bd
00000340: 7c79 293a 1b2e 59be 16fd 0f3d f179 223d
00000350: c1be 86be 52a0 babc 5ea7 063e 0bb5 693e
00000360: 91e8 73be 85ae 573e 41b0 673e cfa0 873d
00000370: 379d 8a3e 9d58 5b3c e7b0 453e 6a3a 893c
00000380: f7e0 c73c f99c 823e 32ac 2a37 a900 83b6
00000390: 4098 debd 77e3 94bd 6c84 f83d 9e0a 1c3e
000003a0: 5e3f 78be 3576 4dbe d48a 623c 8638 cd3e
000003b0: e8e9 babe a85c a13c 3863 aebc 7436 6a3e
000003c0: 3adb 9bbd 9b1c c1be 089b c4be ba97 173e
000003d0: c0cd 5dbe e8b9 003d d277 6ebe 1806 04be
000003e0: 24c6 183e 1f63 bcbe f4e4 bcbd 9dcd a6be
000003f0: c5b2 a4be 037f 273e 02ff 433e 2685 c43d

conv2.bias f4 [16]
-0.10409556 -0.038156312 0.23097359 0.027178971 0.49840805 0.0002361682 -0.14070772 0.013796448
-0.15147695 -0.16954464 -0.12166487 -0.0868141 0.017785052 -0.44730318 -0.1267939 -0.121669024
00000000: 0e30 d5bd cb49 1cbd 5784 6c3e 6fa6 de3c
00000010: 572f ff3e eba3 7739 af15 10be 7f0a 623c
00000020: c61c 1bbe 1c9d 2dbe 6e2b f9bd 97cb b1bd
00000030: f5b1 913c ec04 e5be 43d6 01be 9c2d f9bd

conv3.weight f4 [16, 16]
0.1357843 0.24237481 0.15377852 -0.46766955 -0.30470088 0.38131818 0.086624734 -0.044252314
-0.32562065 -0.0527585 -0.19604956 -0.40660986 0.28750083 -0.08502062 0.16241121 -0.16126323
-0.31978837 -0.23521921 0.15249838 -0.34736907 -0.11426416 0.36350295 -0.05106434 0.045459945
0.25427234 0.18836382 0.16084212 -0.25625232 -0.15363203 0.074479006 -0.2111138 0.050786875
-0.012298903 0.31419623 0.41555923 -0.12888943 0.32710096 0.10250017 -0.03820884 0.065030955
0.34955987 0.18340126 -0.18662179 0.35317543 0.016208442 -0.18482657 0.0007687786 -0.10190848
-0.075421944 -0.14878543 -0.07831978 -0.34698927 -0.38650575 0.0007904735 0.09785152 -0.17393452
0.16812174 0.13409173 -0.3534877 0.08615244 0.11017588 -0.068113096 0.009345522 0.20665056
0.04318647 0.15353362 0.32889608 0.045716472 -0.049625106 -0.14939351 -0.092094995 -0.07585885
0.05809236 -0.06539805 0.21335734 0.10691732 -0.15477194 -0.035536528 0.35839108 -0.40733272
0.3287331 -0.5578353 -0.35969812 -0.004631068 -0.343924 0.116398886 0.06974311 0.19276816
-0.23823872 -0.37649065 -0.24723636 0.12243577 0.18938558 -0.0914332 0.27267528 -0.32822832
-0.025831765 -0.3783485 0.09711073 0.2774214 0.17694156 -0.042807218 -0.03239003 0.24026988
-0.24466856 0.33594462 -0.0859909 -0.06819343 -0.41462457 -0.077231 0.16333227 0.3448148
0.015828345 0.23210394 0.17209537 0.48434475 -0.10293058 -0.13628957 0.21603855 -0.18067838
0.22731672 -0.2864932 0.18672597 -0.20583872 0.029079529 0.079620995 -0.0076609156 0.24899249
0.23815629 -0.39005634 -0.05827552 0.19597942 0.042667694 -0.22030023 0.017254794 -0.4415278
-0.36681956 0.18477696 0.2145703 -0.39300427 -0.4132909 -0.25198373 0.19608824 0.08839247
-0.19374378 -0.16313022 0.3096817 -0.31434268 0.12082301 0.17401125 -0.29948264 0.29369318
-0.06005122 -0.2725715 0.2119318 -0.044646896 -0.43037137 -0.38634384 -0.19031723 0.25583807
-0.120545015 -0.31614003 -0.36984497 -0.19968662 0.36731765 0.29786506 -0.13903674 0.16377059
0.12578262 -0.3310102 -0.0805205 0.31635815 0.3901448 0.29788443 -0.44289112 -0.08910467
-0.094262466 0.014808329 -0.42103657 -0.5038791 -0.08071023 0.16065331 -0.076909125 -0.12242458
0.04233795 0.34967163 -0.20809492 -0.25916985 0.031116966 -0.50153226 -0.44128904 -0.46346122
0.030312682 0.2612562 -0.091501966 0.32184738 -0.10352648 -0.098878205 -0.41269767 0.14426844
0.06085503 -0.06403718 0.051892567 0.23957422 0.14699721 -0.4805009 -0.40807256 0.05883954
-0.31318575 -0.013929228 -0.34260702 0.088453844 0.09705355 -0.10967206 -0.35889462 -0.23317103
-0.10540453 0.1396682 -0.37241018 -0.0950956 0.20480713 -0.0044763023 -0.3459916 -0.27152508
-0.33614427 -0.35470027 -0.3337814 -0.4556267 0.055022966 0.18483219 -0.35300907 -0.23397827
-0.18709895 0.06739408 -0.29075915 -0.5365542 0.29918978 0.02226336 -0.44748533 -0.17752776
0.0885141 -0.25820208 0.24403323 -0.3745133 -0.28935972 0.068746135 0.39501774 0.25966114
0.3167557 -0.050650295 -0.35203505 -0.4082775 0.020272562 0.08158715 0.265013 -0.24650034
00000000: 0a0b 0b3e 1a31 783e 1e78 1d3e 6272 efbe
00000010: c101 9cbe 233c c33e 4f68 b13d ea41 35bd
00000020: c0b7 a6be 4c19 58bd 37c1 48be 2b2f d0be
00000030: 4f33 933e 4a1f aebd 204f 263e 3022 25be
00000040: 4dbb a3be 4edd 70be 8928 1c3e 5cda b1be
00000050: 5403 eabd 0f1d ba3e d728 51bd 3534 3a3d
00000060: fc2f 823e 72e2 403e ccb3 243e 8133 83be
00000070: b751 1dbe 7388 983d 372e 58be e605 503d
00000080: 5781 49bc 54de a03e 2ec4 d43e 97fb 03be
00000090: c779 a73e 9ceb d13d df80 1cbd f32e 853d
000000a0: 83f9 b23e 8acd 3b3e c819 3fbe 69d3 b43e
000000b0: 91c7 843c 2d43 3dbe dc87 493a 65b5 d0bd
000000c0: d276 9abd 355b 18be 1f66 a0bd 94a8 b1be
000000d0: 15e4 c5be c737 4f3a 6166 c83d e41b 32be
000000e0: 1b28 2c3e 584f 093e 57fc b4be b170 b03d
000000f0: e4a3 e13d e17e 8bbd f61d 193c 349c 533e
00000100: 4ce4 303d eb37 1d3e 1165 a83e 3241 3b3d
00000110: b243 4bbd 9dfa 18be 4d9c bcbd e25b 9bbd
00000120: 41f2 6d3d 6aef 85bd 597a 5a3e 78f7 da3d
00000130: 897c 1ebe c08e 11bd 097f b73e ea8d d0be
00000140: b44f a83e 4bce 0ebf 5a2a b8be 37c0 97bb
00000150: ce16 b0be 8a62 ee3d 7ad5 8e3d 0465 453e
00000160: daf4 73be 62c3 c0be 872b 7dbe 9bbf fa3d
00000170: 4bee 413e 5441 bbbd 189c 8b3e 8b0d a8be
00000180: 239d d3bc e5b6 c1be fee1 c63d 2e0a 8e3e
00000190: 2b30 353e 9f56 2fbd 68ab 04bd 4f09 763e
000001a0: 658a 7abe ef00 ac3e ff1b b0bd ffa8 8bbd
000001b0: ac49 d4be 492b 9ebd 9340 273e 918b b03e
000001c0: 72aa 813c a8ac 6d3e c539 303e 09fc f73e
000001d0: 45cd d2bd 7e8f 0bbe 3639 5d3e c103 39be
000001e0: b7c5 683e 3daf 92be 1835 3f3e 63c7 52be
000001f0: 3138 ee3c 5510 a33d 6b08 fbbb e3f7 7e3e
00000200: 3edf 733e 77b5 c7be 50b2 6ebd d4ae 483e
00000210: 52c4 2e3d 6296 61be ed59 8d3c ef0f e2be
00000220: c6cf bbbe 2c36 3d3e 51b8 5b3e db37 c9be
00000230: dd9a d3be 0304 81be 5bcb 483e 1c07 b53d
00000240: c564 46be 9c0b 27be 9a8e 9e3e 86f1 a0be
00000250: 0e72 f73d 0130 323e ca55 99be f45e 963e
00000260: 45f8 75bd 7e8e 8bbe a604 593e aadf 36bd
00000270: a359 dcbe dcce c5be 85e2 42be 35fd 823e
00000280: 4ee0 f6bd 1bdd a1be 525c bdbe a67a 4cbe
00000290: 0f11 bc3e c581 983e a65f 0ebe 7ab3 273e
000002a0: 29cd 003e 2b7a a9be efe7 a4bd b2f9 a13e
000002b0: 0fc1 c73e 4f84 983e a0c2 e2be 827c b6bd
000002c0: ae0c c1bd a29e 723c 1b92 d7be 38fe 00bf
000002d0: 684b a5bd 4d82 243e 8882 9dbd bdb9 fabd
000002e0: 8f6a 2d3d 2908 b33e d616 55be e9b1 84be
000002f0: 02e9 fe3c 6b64 00bf a3f0 e1be ca4a edbe
00000300: 4d52 f83c 5fc3 853e 6265 bbbd 2ec9 a43e
00000310: b105 d4bd a880 cabd 1c4d d3be 1bbb 133e
00000320: 2043 793d ed25 83bd 4d8d 543d f252 753e
00000330: 7086 163e 3704 f6be e3ee d0be bb01 713d
00000340: e259 a0be 6b37 64bc 306a afbe 4a27 b53d
00000350: 03c4 c63d bf9b e0bd 09c1 b7be 63c4 6ebe
00000360: 55de d7bd 2e05 0f3e 8cac bebe 7bc1 c2bd
00000370: f6b8 513e f2ad 92bb d025 b1be 5605 8bbe
00000380: 1a1b acbe 469b b5be 65e5 aabe e747 e9be
00000390: c35f 613d a644 3d3e 9bbd b4be 0098 6fbe
000003a0: de96 3fbe e805 8a3d 62de 94be 9e5b 09bf
000003b0: 672f 993e a661 b63c cc1c e5be d6c9 35be
000003c0: e146 b53d 1033 84be d9e3 793e 35c0 bfbe
000003d0: f526 94be c6ca 8c3d c43f ca3e 4ef2 843e
000003e0: ce2d a23e af76 4fbd f03d b4be c009 d1be
000003f0: a512 a63c 2a17 a73d c9af 873e 966a 7cbe

conv3.bias f4 [16]
-0.11339052 0.44267008 0.14491306 0.45580688 0.43079722 -0.16555578 -0.06613577 0.05937083
0.18999732 0.05837232 0.22384827 0.40672633 -0.025570998 0.007204474 0.07498217 -0.217283
00000000: 4a39 e8bd a7a5 e23e 1764 143e 855f e93e
00000010: 7491 dc3e 7487 29be 3172 87bd d42e 733d
00000020: a88e 423e d017 6f3d 7b38 653e 6f3e d03e
00000030: 457a d1bc 8213 ec3b 4090 993d 6f7f 5ebe

conv4.weight f4 [16, 2]
-0.4192737 -0.28194827 0.2189216 0.07446154 0.47172004 0.4148237 0.28233236 0.1622585
-0.28248414 -0.45086217 -0.08527669 -0.0013787152 -0.3395386 -0.17596614 0.5373631 0.5573706
-0.19092938 -0.24407525 -0.3941931 -0.3820323 0.19331886 -0.39385766 -0.11373901 -0.24035758
0.40350193 0.42033714 -0.09810197 -0.111702226 0.34826657 0.21263283 -0.47045287 0.21400379
00000000: 0bab d6be 865b 90be fc2c 603e 4b7f 983d
00000010: 4a85 f13e c663 d43e de8d 903e 1827 263e
00000020: c3a1 90be 68d7 e6be 8ca5 aebd 01b6 b4ba
00000030: 01d8 adbe 7830 34be a190 093f d7af 0e3f
00000040: fe82 43be ddee 79be aed3 c9be bd99 c3be
00000050: 61f5 453e b6a7 c9be 00f0 e8bd 4c20 76be
00000060: ce97 ce3e 6e36 d73e b0e9 c8bd 23c4 e4bd
00000070: ff4f b23e 6cbc 593e 33df f0be cf23 5b3e

conv4.bias f4 [2]
0.2948105 -0.29481047
00000000: 67f1 963e 66f1 96be
